Lab7/saved_models/FrozenLake/QAgent/run-2024-06-13_11-45-59/model.npy (npy, 928 bytes, 1 tensors)

array f8 [25, 4]
00000000: 0000 0000 0000 0000 0000 0000 0000 0000
00000010: 0000 0000 0000 0000 0000 0000 0000 0000
00000020: fdff 74eb 9853 8a40 cc9b 631c 88a6 8540
00000030: de40 3c3e 167e 8840 eb4a 1cde 1b55 8d40
00000040: 78dd 10c6 ff31 8740 b0c2 f581 0612 8640
00000050: c50c 3b18 2575 8340 747a a050 fcc8 8c40
00000060: a0cc 5834 1ddf 6940 4766 087f 0a26 6240
00000070: 8c12 14f8 5f9e 5840 7d58 b934 8ec7 8c40
00000080: 12bc 565f 9e5c 5740 d52e debe c251 8b40
00000090: 95ad efb0 623d 8040 9bea 4c30 90d4 7f40
000000a0: 0000 0000 0000 0000 0000 0000 0000 0000
000000b0: 0000 0000 0000 0000 0000 0000 0000 0000
000000c0: fa04 7262 aebd 6e40 7aa4 c892 248b 6b40
000000d0: f787 80e0 c1fc 8440 9c40 f602 e323 7bc0
000000e0: fb2e 9919 316a 8b40 6232 656a 6863 8340
000000f0: 0aa5 b0aa 4a9d 7d40 48c2 7e3f 0334 8040
00000100: e328 2ccb 2a33 5c40 1e6a bc3d ca61 6240
00000110: e705 1a5f 6ad7 8940 54f3 49e4 5314 7340
00000120: 5d8a 7e70 0d75 8b40 fa9a 07c7 c5fc 7940
00000130: e450 db0f 7220 8040 8600 17e1 fe0e 7c40
00000140: fd7c 8ce0 b65b 89c0 684e cbd0 71ee 8540
00000150: c914 42e4 cad7 6340 e050 68d6 7537 53c0
00000160: a95d 7657 19e8 8440 d9bd 6fba 8da0 7f40
00000170: b73c 9d5d 4edd 8740 27bf 9bf7 b7d4 7d40
00000180: 6430 7d71 a1c2 8940 dbf1 09d9 4079 6c40
00000190: 8cb2 3921 885e 7340 4ddc a6e6 5f77 8040
000001a0: e8cf be48 a85f 2940 a2e5 bac3 ddcf 72c0
000001b0: f24d 886a 7729 61c0 8570 0161 242d 8240
000001c0: e116 31a1 9079 8840 07ad d4c4 f32b 1440
000001d0: 975c 0c25 0c12 3b40 0898 dea0 3201 2a40
000001e0: 1716 b833 3551 7340 ca05 9f00 db0a 7840
000001f0: f31e 9373 1b67 8740 b8c1 095e f292 7240
00000200: 3b84 e724 4096 8740 3b37 9784 4e7a 8240
00000210: f0c3 aee7 1e7f 7b40 0b8a 14a4 4cf8 8240
00000220: 2ebf 91b6 7311 6440 588d 3d85 d67f 49c0
00000230: c1e3 85f1 f881 8ac0 b62d f2e1 6418 8240
00000240: 0000 0000 0000 0000 0000 0000 0000 0000
00000250: 0000 0000 0000 0000 0000 0000 0000 0000
00000260: 4528 0778 4f98 50c0 ccf0 b066 8c58 4fc0
00000270: 0ee5 18a0 6dd0 5940 cdcc cccc cc9c 56c0
00000280: 3387 2878 e507 8240 e551 4b89 5d2e 8040
00000290: 5651 9600 bd37 8740 e357 0616 58f8 8140
000002a0: 8f5f 5a70 4a87 8740 02f6 bc2c 6325 8140
000002b0: f6ff 351c 2535 7d40 729e 6cc7 92d7 8040
000002c0: d823 4815 54d2 34c0 0e8a 9b36 d1c5 4b40
000002d0: a398 d647 3bab 84c0 1f0d 18c1 977b 8440
000002e0: 0000 0000 0000 0000 0000 0000 0000 0000
000002f0: 0000 0000 0000 0000 0000 0000 0000 0000
00000300: 78e3 7b43 caca 5bc0 567c 04a4 aa93 58c0
00000310: c87b f4a9 46c8 56c0 cdcc cccc cc9c 56c0
0.0 0.0 0.0 0.0 842.4496678486463 692.8164603979035 783.760860892038 938.6386072359431
742.2498894994342 706.253177566532 622.6431126225731 921.1232006585474 206.97231499999634 145.18878127708942 98.47460748634529 920.9444365005617
93.44716628523045 874.2200906141321 519.6731890416 509.2852023129032 0.0 0.0 0.0 0.0
245.92753717679426 220.34821452320085 671.5946664849752 -434.24292274658524 877.273974606272 620.42598418293 473.8307291889365 518.5015859511414
112.799486916661 147.05593764114104 826.926939204507 305.2704813851062 878.6315622220969 415.7982855126462 516.0556943067609 448.9372263811605
-811.4642954803127 701.8055740245154 158.74351704508288 -76.86656723200895 669.0123738524754 506.0346016278177 763.663264492431 477.2949138721328
824.3288297443764 227.78916599218687 309.9082348111922 526.9218266521435 12.686830781261918 -300.9916417408623 -137.29582716581314 581.6427631485427
783.1956199488742 5.042922091942507 27.070497813718784 13.002339389011482 309.07548877629 384.6784673892804 748.8884040349789 297.18417171298233
754.7813203894833 591.2883388341646 439.94504516856887 607.037422333205 160.54537514177485 -50.9987341452167 -848.2465544185762 579.0492590828133
0.0 0.0 0.0 0.0 -66.379850394239 -62.69178470267943 103.25669100218894 -90.45
576.987045590044 517.7956720241897 742.9672862762043 575.0430107589312 752.9113471088802 548.6734251749588 467.32156010717097 538.946669434152
-20.821595506775196 55.54544718355838 -661.4039456143695 655.4490987662319 0.0 0.0 0.0 0.0
-111.1685951909875 -98.3072900813871 -91.12931298137039 -90.45
