Lab7/saved_models/FrozenLake/QAgent/run-2024-06-13_11-45-59/model_best.npy (npy, 928 bytes, 1 tensors)

array f8 [25, 4]
000000 00 00 00 00 00 00 00 00 00 00 00 00 00 00 00 00
       0.0 0.0
000010 00 00 00 00 00 00 00 00 00 00 00 00 00 00 00 00
       0.0 0.0
000020 14 87 e7 f2 02 de 8a 40 a9 0a 20 e0 87 f5 83 40
       859.7514398658845 638.6913454535726
000030 e6 dc 77 97 07 ed 86 40 1a 78 fd ff 9f bb 8e 40
       733.6287068714416 983.4531249811437
000040 da 7b 10 6a 87 fe 83 40 41 b1 01 d1 c1 e0 79 40
       639.8161202705189 414.0473184648618
000050 1f 7a 06 c3 f6 a7 80 40 7b e9 18 1c 47 59 8d 40
       532.9954891687411 939.1597215601208
000060 50 0c e2 28 86 d3 54 40 47 66 08 7f 0a 26 62 40
       83.30506345820436 145.18878127708942
000070 82 26 0e fd e6 bc 3a 40 4d 9d 52 6d eb 59 8c 40
       26.737899604754155 907.2399546102766
000080 ce 07 98 16 04 80 39 40 71 b1 38 97 ef 6a 8b 40
       25.50006238185579 877.3669876507903
000090 11 c9 a1 de 23 da 74 40 4d 50 2d f1 38 a0 78 40
       333.6337572402709 394.01390187931685
0000a0 00 00 00 00 00 00 00 00 00 00 00 00 00 00 00 00
       0.0 0.0
0000b0 00 00 00 00 00 00 00 00 00 00 00 00 00 00 00 00
       0.0 0.0
0000c0 fa 04 72 62 ae bd 6e 40 6c ba 78 12 10 c7 64 40
       245.92753717679426 166.22071193294266
0000d0 87 95 c1 3d 62 89 8a 40 9c 40 f6 02 e3 23 7b c0
       849.1729693530805 -434.24292274658524
0000e0 9e 2e 77 7b be 83 8b 40 fc d3 46 6b 24 1b 81 40
       880.4680089293577 547.3927827390139
0000f0 8b 69 8b bb 59 b2 76 40 4d 0e 54 0b 7c b6 7e 40
       363.1469073720734 491.40528424104997
000100 e3 28 2c cb 2a 33 5c 40 1e 6a bc 3d ca 61 62 40
       112.799486916661 147.05593764114104
000110 c0 ca 30 a5 66 3a 8a 40 4c 26 3a 98 bf d8 63 40
       839.3001197635531 158.7733880172476
000120 c1 a1 da 1c cb 77 8b 40 e2 4a 26 d9 c1 c3 72 40
       878.974176128446 300.2348262306024
000130 48 ee 8d 05 84 bb 71 40 f4 89 7a 9c c3 75 6f 40
       283.71973185960496 251.68012832578063
000140 fd 7c 8c e0 b6 5b 89 c0 e7 1c 91 45 29 3e 84 40
       -811.4642954803127 647.770152219481
000150 52 87 92 18 d1 39 5b 40 e0 50 68 d6 75 37 53 c0
       108.90338720616754 -76.86656723200895
000160 93 0e b1 fc f4 d7 7f 40 88 e7 31 6e 44 55 79 40
       509.4973112980162 405.32920665258325
000170 c6 19 c3 3e ab 2b 89 40 2b 15 7f ee 54 3a 7b 40
       805.4586158029786 435.6457352604072
000180 eb fc 82 73 fe 39 8a 40 c0 7a aa 49 63 d1 61 40
       839.2492437585291 142.54337008759285
000190 48 9d 06 84 45 9a 6c 40 68 4f b5 ed 8c ea 75 40
       228.82098580638763 350.65940638374605
0001a0 cc 38 bc ac ef 2a 50 c0 34 3c 2a 81 a9 eb 6c c0
       -64.67087858563463 -231.36444147347504
0001b0 f2 4d 88 6a 77 29 61 c0 45 89 62 13 cb 7d 85 40
       -137.29582716581314 687.724158067526
0001c0 80 52 d5 47 c9 43 86 40 07 ad d4 c4 f3 2b 14 40
       712.4732815423777 5.042922091942507
0001d0 97 5c 0c 25 0c 12 3b 40 08 98 de a0 32 01 2a 40
       27.070497813718784 13.002339389011482
0001e0 d1 dd 66 ea d0 db 6c 40 de 20 dd f4 07 59 76 40
       230.86925239649875 357.56444250467564
0001f0 33 c7 f7 38 ad e4 86 40 11 d1 73 17 df c4 6a 40
       732.5845813138643 214.1522328626675
000200 1d db 68 0a be 10 88 40 d2 d4 a5 37 c7 f2 7d 40
       770.0927932922237 479.17363705423224
000210 83 47 ce 38 6d fb 77 40 f1 68 b5 cc 8c d2 7e 40
       383.71416550233715 493.1593749128652
000220 c7 bb 57 71 22 a3 4d 40 58 8d 3d 85 d6 7f 49 c0
       59.274488609160066 -50.9987341452167
000230 c1 e3 85 f1 f8 81 8a c0 b0 51 73 34 32 b2 82 40
       -848.2465544185762 598.2745141038231
000240 00 00 00 00 00 00 00 00 00 00 00 00 00 00 00 00
       0.0 0.0
000250 00 00 00 00 00 00 00 00 00 00 00 00 00 00 00 00
       0.0 0.0
000260 45 28 07 78 4f 98 50 c0 cc f0 b0 66 8c 58 4f c0
       -66.379850394239 -62.69178470267943
000270 aa 30 28 cc 79 d2 4d 40 cd cc cc cc cc 9c 56 c0
       59.644341964363164 -90.45
000280 cc 82 72 3f cc b3 7b 40 dd 3c d9 f9 57 23 7b 40
       443.2373651955684 434.20897850855346
000290 b6 05 d4 7d ec a3 86 40 1c 50 2d a9 ce 72 7d 40
       724.4904743732684 471.1754543085133
0002a0 dc 68 f8 36 6d 31 87 40 2f bd 45 44 15 3b 7b 40
       742.178327503872 435.69269206277653
0002b0 ea ed 9e 48 00 7d 76 40 e0 81 13 ac b2 9d 7d 40
       359.81256925660875 473.85612113590287
0002c0 d8 23 48 15 54 d2 34 c0 0e 8a 9b 36 d1 c5 4b 40
       -20.821595506775196 55.54544718355838
0002d0 a3 98 d6 47 3b ab 84 c0 7e 2f d5 37 9c 09 86 40
       -661.4039456143695 705.2012783675307
0002e0 00 00 00 00 00 00 00 00 00 00 00 00 00 00 00 00
       0.0 0.0
0002f0 00 00 00 00 00 00 00 00 00 00 00 00 00 00 00 00
       0.0 0.0
000300 e8 f0 e2 01 b2 b8 3f c0 56 7c 04 a4 aa 93 58 c0
       -31.721466176896598 -98.3072900813871
000310 c8 7b f4 a9 46 c8 56 c0 cd cc cc cc cc 9c 56 c0
       -91.12931298137039 -90.45
