Lab7/saved_models/FrozenLake/QAgent/run-2024-06-13_11-40-54/model.npy (npy, 928 bytes, 1 tensors)

array f8 [25, 4]
00000000: 0000 0000 0000 0000 0000 0000 0000 0000
00000010: 0000 0000 0000 0000 0000 0000 0000 0000
00000020: 102f 2e54 139d 8c40 4e4c 57b5 0a90 8740
00000030: 91d8 d2f1 5f2a 8a40 df8d 201d 364a 8e40
00000040: d0bc ee5e ad04 8c40 22d4 6ee3 5e2a 8b40
00000050: 4c3e f4a0 7328 8c40 79bc c16d cf68 8d40
00000060: fe39 922d 20eb 6f40 b414 524c 470a 7840
00000070: 75b5 1dd9 7ddc 8e40 6666 6666 6666 eebf
00000080: 4b0f 513b c2ac 7740 89f0 fa3a 0b68 8a40
00000090: d784 ce8e be86 5b40 72a6 6da4 e23b 4640
000000a0: 0000 0000 0000 0000 0000 0000 0000 0000
000000b0: 0000 0000 0000 0000 0000 0000 0000 0000
000000c0: 72d6 7c99 7f14 7b40 f8f1 2184 e4d7 8140
000000d0: 4c5f a761 151d 7d40 b2d3 2a1d ce68 6cc0
000000e0: 94e4 ecd1 b0fe 8b40 f838 8480 807d 8840
000000f0: bb3a 71fd 67f2 8840 73e0 b49f 5b72 8740
00000100: 6cea e26d 8a1e 8540 1a42 7358 c4b4 7a40
00000110: d2ce 3a07 0338 8140 20c9 229e fce5 8a40
00000120: 9a62 fdbc a94d 6240 a467 86af 15b4 5240
00000130: c880 3f3d 5e17 5340 16a3 96c0 ff62 8a40
00000140: 3324 25dc 3157 72c0 0817 b5a1 a450 5d40
00000150: 58bb 1d49 5199 7f40 3b18 07a1 4a64 5140
00000160: 912a d99f 9e32 8640 8476 b7fd c0ab 8540
00000170: b4b4 9edf f75d 8740 0df2 20b0 00a9 8440
00000180: 0a6c 031e 33e9 8840 b23c ab38 8acd 8240
00000190: 70a5 6eac 85a0 8240 bbdd ecad a50f 8640
000001a0: 6c33 b0c5 ccde 6940 aeb5 4d70 5aee 6dc0
000001b0: 7b03 ef62 bc57 4e40 dc6e 8857 9998 8640
000001c0: 80a2 a0fa 2801 8840 6412 e1e4 4bdd 25c0
000001d0: 5ca8 be39 3068 5140 1eca 0ebb 62fb 21c0
000001e0: 9655 91cd a929 8140 0b01 48c9 527b 8340
000001f0: 5df9 ec17 67b3 8540 76ea 40ba 47df 8340
00000200: 8bde cced b70d 8640 9cdd 620a 1a74 8440
00000210: fab8 e8bc 338c 8340 0b60 68b7 cdb1 8440
00000220: 0c6a d638 936f 6a40 e07a b5cc 0fb8 7d40
00000230: 6c6f facf c30b 85c0 0092 c7e6 2a7e 6740
00000240: 0000 0000 0000 0000 0000 0000 0000 0000
00000250: 0000 0000 0000 0000 0000 0000 0000 0000
00000260: f846 a606 c041 69c0 7800 218b 38aa 63c0
00000270: baf1 20f5 8cb6 68c0 92ce f5c2 1048 6ec0
00000280: 4d03 8888 698d 8440 3258 158b baa7 8440
00000290: c5bf 6f07 0e65 8540 f707 74a6 94f9 8440
000002a0: e7c3 95db c2d0 8540 5dfa ee51 8333 8440
000002b0: d0f8 091d 7602 8440 25e4 a454 ee29 8440
000002c0: d8eb 0277 3880 4e40 06f4 9ca6 933a 4ac0
000002d0: e767 736e e314 76c0 a335 7f93 60a2 8440
000002e0: 0000 0000 0000 0000 0000 0000 0000 0000
000002f0: 0000 0000 0000 0000 0000 0000 0000 0000
00000300: 47e4 5c40 82a9 66c0 fcfb d802 276c 6fc0
00000310: f834 6ff8 403d 6fc0 af99 7cb3 8d8a 70c0
0.0 0.0 0.0 0.0 915.6344379051316 754.0052286930238 837.2968479606953 969.2764227431579
896.5846537257548 869.2963322313774 901.056459339286 941.1012835631983 255.34767798004026 384.6424067693981 987.5614492722513 -0.95
378.7974198500057 845.0054835896163 110.10538072746145 44.46785407403958 0.0 0.0 0.0 0.0
433.281152236602 570.9865801479309 465.8177200830439 -227.27516039242397 895.8363379008538 783.6877451257596 798.300776371579 750.2947382098195
675.8175924041548 427.29793591521013 551.0014786333434 860.7483484952572 146.42697000016489 74.81382358670686 76.36512690736265 844.374879052021
-293.4496728373371 117.26004831966941 505.5823451196097 69.56705499356114 710.3274533239475 693.4692339261096 747.746031989946 661.1253359388226
797.1499595897051 601.6924908998392 596.0652702945936 705.9558981423537 206.96249660886986 -239.4485398786323 60.685436598497255 723.0748739870864
768.1450092839805 -10.932219650721159 69.62794345492279 -8.990987630420076 549.2079116205448 623.4154229760474 694.425338603363 635.9100232192566
705.7148090367713 654.5127151225929 625.5252626592112 662.2254474787054 211.486721438196 475.50385733500116 -673.470611530805 187.94273699740006
0.0 0.0 0.0 0.0 -202.0546906707384 -157.3194022793357 -197.7047067302172 -242.25204608925975
657.6765299440391 660.966085592989 684.6318501215361 671.1975831093722 698.0951453876886 646.439121119514 640.307672574907 645.2413723833203
61.001723171640776 -52.45763094581348 -353.30552525597017 660.2971563280338 0.0 0.0 0.0 0.0
-181.29714983122742 -251.3797621000266 -249.91418096275424 -264.659595
