Lab7/saved_models/FrozenLake/QAgent/run-2024-06-13_11-40-54/model_best.npy (npy, 928 bytes, 1 tensors)

array f8 [25, 4]
0.0 0.0 0.0 0.0 831.7911696050469 739.0446294209953 763.8970607390507 964.8384472626408
586.5003919828453 475.84026205603305 512.5424801154345 921.3747718062974 -0.5672535795500001 56.01173118551585 902.1752772044736 -0.95
30.258989634139148 723.7160738492784 35.34745288926892 44.46785407403958 0.0 0.0 0.0 0.0
264.542347735268 388.4314227669764 756.3327002655196 -195.31486787535982 884.1678686703098 547.7530674218344 438.2531605307055 487.9358496669491
233.26231562717277 -14.374929155 3.641953978156664 830.1198714864702 -0.5 1.7890141450000003 12.284310126245506 792.3865106636014
-664.412511333896 214.08680117887175 552.6050454435305 2.2790738540895177 687.4590608356317 593.7821578820904 621.0674477611343 484.85406419918246
834.9475808590887 155.39100733620526 164.9775947214209 264.6159313865001 -90.75084636458794 -272.355 -44.183713699557465 701.8801185286158
-2.7109071955909325 14.694271759269245 -5.42099183835051 -8.990987630420076 437.45170937090717 474.2545800627024 677.2013883829128 420.6986950987967
679.546338057073 491.93968356190425 459.69180763663974 549.4439160340073 755.8855748109811 -42.74917669748737 -499.6968625679087 -23.227977552861873
0.0 0.0 0.0 0.0 -22.786960412960887 -183.617294011849 -152.228768373807 -157.50227343251083
577.6202407379201 508.1076778558205 657.3317628354915 394.0197906655028 660.716325050422 209.57556780023765 262.723529284404 247.24077065473924
-4.829540950811207 -14.649828927754882 -462.5368006509966 612.0805427848633 0.0 0.0 0.0 0.0
-199.41079311258332 -177.24278315216958 -175.75939772549964 -264.659595
00000000: 0000 0000 0000 0000 0000 0000 0000 0000
00000010: 0000 0000 0000 0000 0000 0000 0000 0000
00000020: 20da ba50 54fe 8940 ea7c ab66 5b18 8740
00000030: fd45 2e2e 2ddf 8740 b4a3 d623 b526 8e40
00000040: 020c 83cd 0054 8240 b52b a0b6 71bd 7d40
00000050: 2c94 d0ff 5604 8040 155c 5c88 ffca 8c40
00000060: 1199 96fa f026 e2bf 2311 5168 8001 4c40
00000070: 9627 bcf7 6631 8c40 6666 6666 6666 eebf
00000080: 72a1 0825 4d42 3e40 5f21 ed84 ba9d 8640
00000090: c627 1656 79ac 4140 72a6 6da4 e23b 4640
000000a0: 0000 0000 0000 0000 0000 0000 0000 0000
000000b0: 0000 0000 0000 0000 0000 0000 0000 0000
000000c0: 92a0 d174 ad88 7040 9e2e 8f1b e746 7840
000000d0: 38be c15e a9a2 8740 6867 cb65 136a 68c0
000000e0: 0788 87cb 57a1 8b40 b263 3648 061e 8140
000000f0: 4a80 0ef2 0c64 7b40 4d18 803d f97e 7e40
00000100: fafd bde3 6428 6d40 7615 d6b6 f6bf 2cc0
00000110: 80c2 6dc4 b822 0d40 e690 2e7f f5f0 8940
00000120: 0000 0000 0000 e0bf d4b3 cd4b cd9f fc3f
00000130: cb4a cc18 9191 2840 c91d e792 17c3 8840
00000140: 8002 bed2 4cc3 84c0 4510 4413 c7c2 6a40
00000150: 75c4 1022 d744 8140 80dd a312 8b3b 0240
00000160: 4d5f 1628 ac7b 8540 18df fddb 418e 8240
00000170: 1542 0d22 8a68 8340 c5c2 383f aa4d 7e40
00000180: d000 46a5 9417 8a40 ed2f d121 836c 6340
00000190: d7a7 b974 489f 6440 9199 deda da89 7040
000001a0: 720e e9dd 0db0 56c0 48e1 7a14 ae05 71c0
000001b0: 97b6 35ee 8317 46c0 1148 957b 0aef 8540
000001c0: dc6e 9c1c f0af 05c0 1232 8996 7763 2d40
000001d0: b864 067c 18af 15c0 1eca 0ebb 62fb 21c0
000001e0: 7df5 9a33 3a57 7b40 5438 8bc2 12a4 7d40
000001f0: 3d33 8371 9c29 8540 5173 e9da 2d4b 7a40
00000200: 82bd 7ce6 5e3c 8540 7b6f a1f1 08bf 7e40
00000210: da67 e2a4 11bb 7c40 da81 d923 8d2b 8140
00000220: 9a1a 3fa8 159f 8740 1851 a305 e55f 45c0
00000230: 972f 5d59 263b 7fc0 8cc3 a5bc 5c3a 37c0
00000240: 0000 0000 0000 0000 0000 0000 0000 0000
00000250: 0000 0000 0000 0000 0000 0000 0000 0000
00000260: e6e9 d43c 76c9 36c0 0f1d 5fdf c0f3 66c0
00000270: 867b 0d12 5207 63c0 14c9 bb9f 12b0 63c0
00000280: 1ca8 c640 f60c 8240 0a54 6a0c b9c1 7f40
00000290: b703 4673 a78a 8440 9c51 0410 51a0 7840
000002a0: f2c6 a008 bba5 8440 d8d4 290d 6b32 6a40
000002b0: 6a63 7193 936b 7040 21fe a864 b4e7 6e40
000002c0: 20b5 d92e 7351 13c0 6867 9160 b64c 2dc0
000002d0: 0888 47bc 96e8 7cc0 5597 9df3 a420 8340
000002e0: 0000 0000 0000 0000 0000 0000 0000 0000
000002f0: 0000 0000 0000 0000 0000 0000 0000 0000
00000300: f5fe 9837 25ed 68c0 d252 2ce1 c427 66c0
00000310: b075 75fc 4cf8 65c0 af99 7cb3 8d8a 70c0
