Lab7/saved_models/FrozenLake/QAgent/run-2024-06-13_11-37-24/model.npy (npy, 928 bytes, 1 tensors)

array f8 [25, 4]
0	0x0000000000000000	0.0
1	0x0000000000000000	0.0
2	0x0000000000000000	0.0
3	0x0000000000000000	0.0
4	0x408b3fbe3ed7fa65	871.9678933022775
5	0x40880beb2daa3233	769.4898331924982
6	0x408b14589d43e390	866.5432687095472
7	0x408e906187fc079d	978.0476226510833
8	0x408a4ef6418a5db9	841.870242196069
9	0x40844ba76ea3bcd8	649.4567539970403
10	0x408391187fd0caac	626.1369625388957
11	0x408d6d0bfe6955d9	941.6308563451122
12	0x408ae9cff9604f80	861.2265498661291
13	0x40808e482377d487	529.7852239000066
14	0x407cdaa706e37f04	461.6657780539101
15	0x4083e38d2c75fbc5	636.4439324586352
16	0x40537d0222334e2b	77.95325522432601
17	0x404c031bf75219b7	56.024290957534895
18	0x4049b0ee761545ac	51.382277260195536
19	0x408a30cfb2745f7f	838.1014145938533
20	0x0000000000000000	0.0
21	0x0000000000000000	0.0
22	0x0000000000000000	0.0
23	0x0000000000000000	0.0
24	0x40847d93391afed6	655.6968862637539
25	0x407847d929f0afd4	388.4905185129003
26	0x407b3dc03f11ebfd	435.85943514824595
27	0xc07ff00ea06e8256	-511.0035709683192
28	0x408c755d0e9d7cfc	910.6704380325095
29	0x4085ce45dff48444	697.7841185667862
30	0x4087b426ef740d55	758.5190114084786
31	0x4086da771442d666	731.3081441137008
32	0x40621e591292915e	144.94837311388522
33	0x405bdc803c675968	111.44532690136623
34	0x40551a6cdfdaec60	84.41289516810639
35	0x4089cb59c171141a	825.4188259920368
36	0x4053619f02f246ed	77.525330292319
37	0x40538bcc8303d888	78.18435740829057
38	0xbffbde0a27c718d7	-1.7417089036767288
39	0x408998224db4dfff	819.0167497759684
40	0xc0742bb71dfb00ee	-322.73220632599157
41	0x40826d4f266c583a	589.6636475052285
42	0x4071eaea10fbe9dd	286.6821451034901
43	0x4052ef056012fe97	75.73470308165484
44	0x408471ea999f24d0	654.2395508225545
45	0x4083877717e2c7e6	624.9331510274176
46	0x408933249f170cbb	806.3928815651665
47	0x408049a100a7eb89	521.2036145323519
48	0x408b02971f7e6e3a	864.3237905385388
49	0x4070bc834ca3a399	267.782055510726
50	0x40778422bd9bd696	376.25848160623843
51	0x40819450311ef01f	562.5391561905889
52	0xc0599f81e5e67111	-102.49230334762639
53	0xc08193fc89321856	-562.498308555
54	0xc059c7f399f78e79	-103.12424325156634
55	0x407d498941177944	468.5960093419019
56	0xbffcad3fb3063399	-1.7922970765241415
57	0xbffc63c625378216	-1.7743588880331393
58	0xbffe7314445aa2e4	-1.9030955
59	0x407c8b63367f31f2	456.71172189412675
60	0x40804051e88d65e2	520.0399943396299
61	0x4080f0415df99e9b	542.0319175244834
62	0x4086f8fa256f0327	735.1221417115056
63	0x408019b6137b34aa	515.2139043450782
64	0x40881d64f1e5511f	771.6742895045644
65	0x4083cab189b7169c	633.336688452127
66	0x40808321f814a97f	528.3915864576555
67	0x408167c3766f41c5	556.9704407398173
68	0x4080ff883b371720	543.9415191940243
69	0x4066d25d60716f10	182.57389852671668
70	0xc080ae586fcc45e2	-533.7931819876505
71	0x40522567c557446a	72.58445867082779
72	0x0000000000000000	0.0
73	0x0000000000000000	0.0
74	0x0000000000000000	0.0
75	0x0000000000000000	0.0
76	0xbff0f7654b0d779a	-1.0603993350737029
77	0xc0539ccccccccccd	-78.45
78	0x4047da6647940061	47.70624632574687
79	0xc0519c08f0b22ed9	-70.43804566765483
80	0x40863af6133f0a0a	711.3701538968028
81	0x4082454fbe167534	584.6639367823141
82	0x4082cc324b30c484	601.5245574769947
83	0x408223df7d876514	580.4841261460992
84	0x4087620f28a98c86	748.2574017759332
85	0x4081926a35f497d8	562.3018607243384
86	0x407c63af89165e91	454.23035534608886
87	0x4081719e76bfdcf7	558.2023749341305
88	0xc04f28f70dc764c5	-62.320039484367534
89	0x4045690f34689dba	42.82077651127061
90	0xc079b8ebb98c7e28	-411.55755
91	0x408484d1322609e0	656.6021464320911
92	0x0000000000000000	0.0
93	0x0000000000000000	0.0
94	0x0000000000000000	0.0
95	0x0000000000000000	0.0
96	0xc057ae0166e17972	-94.71883556384071
97	0x0000000000000000	0.0
98	0xbfe0000000000000	-0.5
99	0x0000000000000000	0.0
