Lab7/saved_models/FrozenLake/QAgent/run-2024-06-13_11-37-24/model_best.npy (npy, 928 bytes, 1 tensors)

array f8 [25, 4]
000000 00 00 00 00 00 00 00 00 00 00 00 00 00 00 00 00
       0.0 0.0
000010 00 00 00 00 00 00 00 00 00 00 00 00 00 00 00 00
       0.0 0.0
000020 a5 4f f7 e9 fe 59 85 40 f2 4a 88 50 94 71 79 40
       683.2494696923428 407.0987096141754
000030 b2 0b a7 1a 32 fc 80 40 27 2f 6d c4 ab dc 8d 40
       543.5244648981518 955.5838707475676
000040 ad 0e 3b ac 35 9b 55 40 50 8d 97 6e 12 83 fb bf
       86.42515092627828 -1.7195
000050 c4 20 87 b0 9b 60 52 40 2f 69 7d 66 47 7f 8b 40
       73.50950253673642 879.9098634526944
000060 2e b8 23 d8 b3 a1 81 40 3f c0 bb 43 c1 d8 56 40
       564.2128145971853 91.38679593405776
000070 55 f2 5b 50 8b 20 40 40 42 e6 18 22 11 2f 58 40
       32.254251522918516 96.73542072707735
000080 d8 46 3c d9 cd 4c e8 bf b0 1b b6 2d ca ec e1 3f
       -0.7593755 0.560155
000090 0c c4 fc 26 5e cf e2 bf 29 25 0a 1a e0 33 75 40
       -0.5878134500000001 339.2422123333259
0000a0 00 00 00 00 00 00 00 00 00 00 00 00 00 00 00 00
       0.0 0.0
0000b0 00 00 00 00 00 00 00 00 00 00 00 00 00 00 00 00
       0.0 0.0
0000c0 ad 8b 8b dd b9 da 63 40 20 5d d6 e8 6f 3e 62 40
       158.8351886487484 145.95116083019184
0000d0 c3 a5 a0 38 b7 19 88 40 28 31 f6 99 8c f1 82 c0
       771.2144634771906 -606.1936530336143
0000e0 62 68 de 2e 78 c4 89 40 ea 88 c4 56 a5 fa 68 40
       824.5586831451039 199.83268297563274
0000f0 e7 2f 49 61 e0 8b 61 40 d8 e0 dc 5c 15 60 74 40
       140.37114013952598 326.0052155139979
000100 e8 45 f4 c0 3f c5 d6 bf 02 4d 84 0d 4f 2f f7 bf
       -0.355789125854328 -1.4490500000000002
000110 de c3 fc 5a 3e cc 03 c0 5c eb 44 02 f6 d8 81 40
       -2.474728308523921 571.1201215156866
000120 9e d6 6b df a5 6d f6 bf 1d 87 b3 8e 9e 04 f7 bf
       -1.401769516696198 -1.4386277746456877
000130 d7 18 c7 27 0a de fb bf 1c fb 75 26 a3 c7 57 40
       -1.7417089036767288 95.11933290025303
000140 aa 09 b3 d4 d8 03 71 c0 2a db 8d e6 f3 fc 6d 40
       -272.2404372209227 239.90477302271148
000150 fe 80 59 9f 77 58 61 40 48 0a 04 9e aa ad 44 40
       138.76460235100961 41.356769325230346
000160 99 52 db e1 51 54 83 40 14 f8 93 d3 69 37 72 40
       618.5399815687734 291.46333654213345
000170 5a 49 14 ff b7 e5 64 40 0a 0d db dd 25 33 72 40
       167.17871049844945 291.19674478117724
000180 54 69 c5 18 82 2b 81 40 bc 08 cb 21 14 3a 5b 40
       549.438523809697 108.90747876002837
000190 f0 10 3d df d6 c1 46 40 65 21 0b 9f 30 bf 62 40
       45.51436987382647 149.97468521284023
0001a0 11 71 e6 e5 81 9f 59 c0 e7 fb a9 f1 d2 f3 6f c0
       -102.49230334762639 -255.6195
0001b0 79 8e f7 99 f3 c7 59 c0 c6 0e a6 a5 f6 6f 5e 40
       -103.12424325156634 121.74942914215634
0001c0 99 33 06 b3 3f ad fc bf 16 82 37 25 c6 63 fc bf
       -1.7922970765241415 -1.7743588880331393
0001d0 e4 a2 5a 44 14 73 fe bf bc b8 44 cb 07 ca 23 40
       -1.9030955 9.894590713633413
0001e0 bb a7 af 22 e6 b3 6f 40 0d b4 cc 8a 56 c6 70 40
       253.62184271152168 268.39612846338497
0001f0 1a 08 b4 20 19 f0 77 40 14 31 31 b7 05 c8 70 40
       383.0061347038733 268.5013954087783
000200 66 b7 79 9c 57 f0 7c 40 ff d2 ae 1d 5e 12 71 40
       463.0213894609973 273.1479775265761
000210 31 e8 8d 22 38 c7 70 40 d2 d8 4b 7d dc 62 70 40
       268.4512048285715 262.1788304293415
000220 ac 46 cd 88 6a 0a 62 40 4e 9f 2f df 3c 3e 32 40
       144.32550468533498 18.243116330267462
000230 c6 57 28 21 03 6a 76 c0 6a 44 57 c5 67 25 52 40
       -358.6257640434163 72.58445867082779
000240 00 00 00 00 00 00 00 00 00 00 00 00 00 00 00 00
       0.0 0.0
000250 00 00 00 00 00 00 00 00 00 00 00 00 00 00 00 00
       0.0 0.0
000260 9a 77 0d 4b 65 f7 f0 bf cd cc cc cc cc 9c 53 c0
       -1.0603993350737029 -78.45
000270 8b d2 48 e3 b4 b7 34 40 d9 2e b2 f0 08 9c 51 c0
       20.717603879240908 -70.43804566765483
000280 96 45 e5 2b f4 c7 70 40 31 08 0f a5 a6 c5 70 40
       268.4971121745997 268.35318475601076
000290 1a 0d 9e 86 dd 82 77 40 1c 71 f1 38 6f c5 70 40
       376.1790834592699 268.33965391457764
0002a0 95 7d 79 d1 29 16 7a 40 2d ed bc 26 99 84 53 40
       417.3852095361447 78.07184761476374
0002b0 62 82 1e 75 4c ff 5b 40 19 86 0a 49 8d ff 63 40
       111.98904159526276 159.9859967427772
0002c0 9c e6 24 1e 0a fc 63 c0 9b ae 37 25 f8 ac 62 c0
       -159.87623507697288 -149.40529118419076
0002d0 28 7e 8c b9 eb b8 79 c0 46 99 99 d8 be 35 6f 40
       -411.55755 249.6795466423011
0002e0 00 00 00 00 00 00 00 00 00 00 00 00 00 00 00 00
       0.0 0.0
0002f0 00 00 00 00 00 00 00 00 00 00 00 00 00 00 00 00
       0.0 0.0
000300 72 79 e1 66 01 ae 57 c0 00 00 00 00 00 00 00 00
       -94.71883556384071 0.0
000310 00 00 00 00 00 00 e0 bf 00 00 00 00 00 00 00 00
       -0.5 0.0
