Lab7/saved_models/FrozenLake/QAgent/run-2024-06-13_11-30-47/model_best.npy (npy, 928 bytes, 1 tensors)

array f8 [25, 4]
0	0x0000000000000000	0.0
1	0x0000000000000000	0.0
2	0x0000000000000000	0.0
3	0x0000000000000000	0.0
4	0x408b3c52816e7982	871.5402859335738
5	0x408811f89fed60d0	770.2463987870378
6	0x408aeab0355d5a0c	861.3360392850022
7	0x408ed9c0c43c0922	987.2191242876327
8	0x408b5c4d8588f8ab	875.5378523541343
9	0x408b60698bbf9a6a	876.0515360802649
10	0x408af71894e14aab	862.8870027161514
11	0x408e08ecb32fc190	961.115576146216
12	0x407cd5d994e2c2da	461.3656205041749
13	0x4089156edb79f523	802.6791295555053
14	0x4088e342db87857c	796.4076452815639
15	0x408c798018d7a05c	911.1875473829091
16	0x4085a85025ba80e0	693.0391344614582
17	0x408692a5a1754176	722.330874363003
18	0x40857324a1a9ecda	686.3928864741713
19	0x408b742ac7926801	878.5208884656896
20	0x0000000000000000	0.0
21	0x0000000000000000	0.0
22	0x0000000000000000	0.0
23	0x0000000000000000	0.0
24	0x408851506f3667c9	778.1642746210501
25	0x4079e6f7a9946949	414.43546445820954
26	0x407694dadf79fa8a	361.3034357800285
27	0xc07ce159bcc2bffd	-462.0844085318966
28	0x408c29615cfb0295	901.1725406274951
29	0x40888e97e7e760fe	785.8241727901911
30	0x40889b2388733306	787.3923501014658
31	0x4086661563a3017b	716.7604439482524
32	0x408867416170fd82	780.9069241359105
33	0x40862bb4951fef1d	709.4631750578734
34	0x408c4d3b29fc3d4a	905.653888674374
35	0x40878e08437d58e7	753.7540349762684
36	0x408eff0a6b549dbc	991.8800875292432
37	0x408676eb1358fa09	718.8647829963021
38	0x408451111402fe40	650.1333389505235
39	0x408682c3244754de	720.345284039762
40	0xc07cc4bcecb75c28	-460.29612418770785
41	0x4085c031ddc23887	696.0243487523556
42	0x407e83a193f2cd3c	488.2269477352563
43	0x407342d1c78244ce	308.17621565710294
44	0x4084cf0bce2a1db2	665.880764321357
45	0x4085c7baacbf4ac7	696.966149801702
46	0x4088f706fdee6bd2	798.8784140230803
47	0x40847ed7ae780c71	655.8553132418439
48	0x408a03608b9d740e	832.4221412945788
49	0x4085738c2d62597d	686.4434459384498
50	0x4084ad701818858c	661.6797334590678
51	0x4086f24371c976d2	734.2829318751703
52	0x407d9d7a1eb847db	473.84231445297854
53	0xc0878497e909dedc	-752.5741749545227
54	0x407083fb94e9701c	264.2489213102979
55	0x40613d61ca58ef8f	137.91818730707425
56	0x4089e666d84ce0d1	828.8002172475918
57	0xc01b1c16c05449ea	-6.777430539269043
58	0x40667d0bc0c70d1a	179.9076846969336
59	0x4058723a200ed889	97.7847976822833
60	0x4083bae8180a5ce5	631.3633271035766
61	0x4083d885bc133fe3	635.0653001312133
62	0x4086eca47c7d6c75	733.5803155707096
63	0x4084710890bbea73	654.1291823082851
64	0x4087f5fc83c7fb0b	766.7482982276427
65	0x4084a0c36ce2462a	660.0954225232756
66	0x4084ff8324ec894a	671.9390352706334
67	0x4084cbe7b5a546fb	665.4881394302641
68	0x408814095e21e444	770.504574074534
69	0x4077d6baac46ac62	381.42057445151124
70	0xc07cb0840700431a	-459.03223323919667
71	0x40778668a7822f1d	376.40055037358417
72	0x0000000000000000	0.0
73	0x0000000000000000	0.0
74	0x0000000000000000	0.0
75	0x0000000000000000	0.0
76	0xc0321aae8ed0fa5c	-18.104226041812908
77	0xc05ef8b8238e8f6c	-123.88623894616984
78	0xc05a29c256a42212	-104.65248647717115
79	0xc067de6666666666	-190.95
80	0x4086206f4941f8d4	708.0543389467298
81	0x408432bfce3326b4	646.3436550136744
82	0x4084216fffc6a7ff	644.1796870727557
83	0x40844e35ac3bb67b	649.77620741511
84	0x4085f816e8d129f4	703.0111862507752
85	0x4083d67f36cba3c0	634.8121162328098
86	0x408250558595bc20	586.0417586992298
87	0x4083f914324a0446	639.134861543899
88	0xc061ec2729b1d574	-143.37978062375225
89	0x4071afb64324964e	282.98199762622687
90	0xc07761f81d1b588e	-374.12307463342665
91	0x4082e1c704828966	604.2221765707188
92	0x0000000000000000	0.0
93	0x0000000000000000	0.0
94	0x0000000000000000	0.0
95	0x0000000000000000	0.0
96	0xc02e7ddc3af60414	-15.245820848971597
97	0xc05ab096f397b784	-106.75921335044956
98	0xc05bb80990eda09b	-110.87558386998937
99	0xc059200000000000	-100.5
