Lab7/saved_models/FrozenLake/QAgent/run-2024-06-13_11-30-47/model.npy (npy, 928 bytes, 1 tensors)

array f8 [25, 4]
000000 00 00 00 00 00 00 00 00 00 00 00 00 00 00 00 00
       0.0 0.0
000010 00 00 00 00 00 00 00 00 00 00 00 00 00 00 00 00
       0.0 0.0
000020 c9 6c b2 ee 7b af 8b 40 be ef a6 da 18 b4 88 40
       885.935513872094 790.5121357957757
000030 89 6d 36 dd ea 2b 8b 40 72 40 fa 52 fb e8 8e 40
       869.4896797420671 989.1227168608586
000040 f3 e0 c7 3b 14 b9 8b 40 c4 97 17 43 31 67 8b 40
       887.1348796477818 876.8990537493887
000050 c1 ad 0e 92 2d 6a 8b 40 f1 04 75 3f 04 2d 8e 40
       877.2722512385154 965.6270741598256
000060 da c2 e2 94 d9 d5 7c 40 23 f5 79 db 6e 15 89 40
       461.3656205041749 802.6791295555053
000070 7c 85 87 db 42 e3 88 40 3b 57 f5 6c bc 2a 8d 40
       796.4076452815639 933.3420046965833
000080 e0 80 ba 25 50 a8 85 40 76 41 75 a1 a5 92 86 40
       693.0391344614582 722.330874363003
000090 da ec a9 a1 24 73 85 40 98 b5 3e ac 4b 9f 8c 40
       686.3928864741713 915.9119496249359
0000a0 00 00 00 00 00 00 00 00 00 00 00 00 00 00 00 00
       0.0 0.0
0000b0 00 00 00 00 00 00 00 00 00 00 00 00 00 00 00 00
       0.0 0.0
0000c0 d4 7b 20 15 94 2e 7a 40 82 a9 cf 40 63 48 81 40
       418.91115296067187 553.048463461266
0000d0 8a fa 79 df da 94 76 40 32 a3 57 fb 01 23 80 c0
       361.3034357800285 -516.375967678707
0000e0 84 bb a7 08 af 65 8c 40 fe 60 e7 e7 97 8e 88 40
       908.7104657272434 785.8241727901911
0000f0 23 10 92 fe 22 25 89 40 7b 01 a3 63 15 66 86 40
       804.6420871173071 716.7604439482524
000100 72 90 ea d7 45 cd 88 40 1d ef 1f 95 b4 2b 86 40
       793.6591032338458 709.4631750578734
000110 32 e5 f6 1b c8 b1 8d 40 e7 58 7d 43 08 8e 87 40
       950.2227095879264 753.7540349762684
000120 17 65 a5 d2 f9 9e 90 40 4e 79 55 14 81 eb 87 40
       1063.7439676135016 765.4380270650524
000130 e8 e2 6b 3e f1 69 85 40 62 b7 ed 7c 38 4d 87 40
       685.2427948406812 745.6525820323552
000140 28 5c b7 ec bc c4 7c c0 9e f6 46 2a ed 65 83 40
       -460.29612418770785 620.7408032936107
000150 1b 9f 33 8d 5f 21 80 40 ce 44 82 c7 d1 42 73 40
       516.1716560395174 308.17621565710294
000160 b2 1d 2a ce 0b cf 84 40 e3 91 c9 57 1e 1a 86 40
       665.880764321357 707.2648158786436
000170 9e e7 78 5c 40 52 88 40 21 d4 80 3c d8 da 85 40
       778.2814263768848 699.355584150766
000180 c9 b3 b5 91 6f c4 8a 40 7d 59 62 2d 8c 73 85 40
       856.5544771380893 686.4434459384498
000190 8c 85 18 18 70 ad 84 40 2e 2a 19 60 cc fc 86 40
       661.6797334590678 735.5997926679609
0001a0 1b 06 c0 ab 94 b9 85 40 dc de 09 e9 97 84 87 c0
       695.1975932123054 -752.5741749545227
0001b0 04 8c e7 d1 bc 9a 6b 40 4f c1 55 ff 31 ba 69 40
       220.83554930900584 205.81860319851918
0001c0 50 ec 78 03 d8 ac 8b 40 ea 49 54 c0 16 1c 1b c0
       885.6054753729932 -6.777430539269043
0001d0 1a 0d c7 c0 0b 7d 66 40 89 d8 0e 20 3a 72 58 40
       179.9076846969336 97.7847976822833
0001e0 27 7a 13 44 27 02 85 40 bb e3 ea 66 42 f6 84 40
       672.2691728135732 670.7824228621242
0001f0 cd d4 3f 22 ed 4f 88 40 36 d6 d6 ed 1f 8e 85 40
       777.9907879816834 689.7655903610346
000200 9d 89 a5 31 a6 73 88 40 44 74 da 9e 05 f1 84 40
       782.4561493809339 670.1277443949443
000210 68 7a 2b 54 73 08 85 40 fb 46 a5 b5 e7 cb 84 40
       673.0563128849726 665.4881394302641
000220 c0 93 ad 00 5c fc 87 40 62 ac 46 ac ba d6 77 40
       767.5449231682505 381.42057445151124
000230 1a 43 00 07 84 b0 7c c0 1d 2f 82 a7 68 86 77 40
       -459.03223323919667 376.40055037358417
000240 00 00 00 00 00 00 00 00 00 00 00 00 00 00 00 00
       0.0 0.0
000250 00 00 00 00 00 00 00 00 00 00 00 00 00 00 00 00
       0.0 0.0
000260 5c fa d0 8e ae 1a 32 c0 6c 8f 8e 23 b8 f8 5e c0
       -18.104226041812908 -123.88623894616984
000270 12 22 a4 56 c2 29 5a c0 66 66 66 66 66 de 67 c0
       -104.65248647717115 -190.95
000280 de 6d 10 d0 e1 9b 87 40 68 b5 25 73 09 fe 84 40
       755.4852601321725 671.7546141572939
000290 a5 5d 18 79 f3 62 84 40 7b b6 3b ac 35 4e 84 40
       652.3688833144739 649.77620741511
0002a0 f0 72 60 d6 7c d3 86 40 c0 a3 cb 36 7f d6 83 40
       730.4359557662083 634.8121162328098
0002b0 20 bc 95 85 55 50 82 40 46 04 4a 32 14 f9 83 40
       586.0417586992298 639.134861543899
0002c0 74 d5 b1 29 27 ec 61 c0 4e 96 24 43 b6 af 71 40
       -143.37978062375225 282.98199762622687
0002d0 4d 69 65 4d 5f 53 7b c0 f1 be f8 00 a5 b9 83 40
       -437.210767170084 631.2055682595511
0002e0 00 00 00 00 00 00 00 00 00 00 00 00 00 00 00 00
       0.0 0.0
0002f0 00 00 00 00 00 00 00 00 00 00 00 00 00 00 00 00
       0.0 0.0
000300 14 04 f6 3a dc 7d 2e c0 84 b7 97 f3 96 b0 5a c0
       -15.245820848971597 -106.75921335044956
000310 9b a0 ed 90 09 b8 5b c0 00 00 00 00 00 20 59 c0
       -110.87558386998937 -100.5
