Lab7/saved_models/FrozenLake/QAgent/run-2024-06-13_10-30-38/model_best.npy (npy, 928 bytes, 1 tensors)

array f8 [25, 4]
0.0 0.0 0.0 0.0 412.661762906916 16.567193828942113 185.8155617355084 927.2973312325279
241.99903844966067 76.77328559757856 199.16626654791563 864.2975243173262 16.037225257266975 -0.95 48.75292213906887 599.5934924772815
4.327282195902307 3.573805 2.9797229429101773 280.2056166307178 0.0 0.0 0.0 0.0
-104.51763498921804 14.73762049480547 389.16817466184574 -219.900623309667 495.2271656298567 11.655059805543955 6.639791037782133 37.83887343401507
15.866009757011609 -1.0417060982591437 110.41555009418315 25.941252249082556 236.44413955528236 -1.1664810478137122 26.841007526396222 -0.0005963524167309497
-640.4880393047803 78.83357568234885 -52.50544271284118 -73.91140226180727 50.687033583352964 13.82943315945409 412.8626340077176 0.37207841926142926
447.3978729298185 -39.73792689181448 2.771578396503608 51.56456619236555 -96.65605325087658 -321.2212692956863 -140.30207199238004 26.826300196714435
-0.6905852374890735 -5.733227919161805 10.208636072726364 -4.578076173212758 14.887303083522037 -8.309797943363925 241.29207942906703 -1.2178332656873945
293.9508296679712 40.11142316636834 -29.105876603093627 -3.792597719880378 -21.752718316868673 -178.0372040778911 -393.45796232783835 -139.9493543932391
0.0 0.0 0.0 0.0 -100.5 24.5 0.0 -100.5
142.49956000455674 3.2790439774751947 -12.019095898413989 10.414272754268286 -18.733038042119183 -20.17703151934796 -27.290444101640468 60.52504086248012
-171.30546420028594 -99.6260388384912 -687.3374308417808 -93.01943902424436 0.0 0.0 0.0 0.0
1.9255 0.0 0.0 0.0
00000000: 0000 0000 0000 0000 0000 0000 0000 0000
00000010: 0000 0000 0000 0000 0000 0000 0000 0000
00000020: 90ae b394 96ca 7940 a5cc 619d 3391 3040
00000030: 15bc ec14 193a 6740 4b7e 32ef 60fa 8c40
00000040: a797 7b1f f83f 6e40 5604 e082 7d31 5340
00000050: ed36 390e 52e5 6840 72e5 6d54 6102 8b40
00000060: fe8b 2e98 8709 3040 6666 6666 6666 eebf
00000070: 1ade adc0 5f60 4840 c5e2 fb78 bfbc 8240
00000080: 99da 5f10 234f 1140 1040 6a13 2797 0c40
00000090: 4c85 77fb 78d6 0740 2607 aa34 4a83 7140
000000a0: 0000 0000 0000 0000 0000 0000 0000 0000
000000b0: 0000 0000 0000 0000 0000 0000 0000 0000
000000c0: 3c7d 81ee 2021 5ac0 0019 bc64 a979 2d40
000000d0: 4b0a ead7 b052 7840 1fa1 f9e7 d17c 6bc0
000000e0: 2870 6d78 a2f3 7e40 8778 b3ff 634f 2740
000000f0: 5131 be61 258f 1a40 fa49 6634 60eb 4240
00000100: 77c3 80a1 65bb 2f40 8d11 8103 d4aa f0bf
00000110: 7217 6c5f 989a 5b40 9518 4be8 f5f0 3940
00000120: 8719 2864 368e 6d40 2438 fc07 e8a9 f2bf
00000130: c78f ed44 4cd7 3a40 0058 3910 918a 43bf
00000140: 8da9 2681 e703 84c0 789b d14d 59b5 5340
00000150: c3d3 c858 b240 4ac0 9cfd 266a 547a 52c0
00000160: 99e0 69b7 f057 4940 8425 8c76 aba8 2b40
00000170: 0839 5159 cdcd 7940 209d 9100 22d0 d73f
00000180: 8c58 01b0 5df6 7b40 5097 6d63 74de 43c0
00000190: d343 5a4b 312c 0640 9251 7ab4 43c8 4940
000001a0: c33c c6c6 fc29 58c0 4e49 ac51 8a13 74c0
000001b0: ea09 e292 aa89 61c0 1e91 e168 88d3 3a40
000001c0: fab5 4336 4619 e6bf 9f41 b54c d3ee 16c0
000001d0: 5040 ea58 d26a 2440 b92e 4a33 f34f 12c0
000001e0: f5bb fa96 4cc6 2d40 743b 06d6 9d9e 20c0
000001f0: ac75 f5b6 5829 6e40 58bb 01bc 3e7c f3bf
00000200: 0c80 2b99 365f 7240 cec8 431d 430e 4440
00000210: deb2 a3ba 1a1b 3dc0 c429 2e79 3d57 0ec0
00000220: 160d ca25 b2c0 35c0 3e3a 9bc6 3041 66c0
00000230: da4d 4ed0 5397 78c0 d4e8 761c 617e 61c0
00000240: 0000 0000 0000 0000 0000 0000 0000 0000
00000250: 0000 0000 0000 0000 0000 0000 0000 0000
00000260: 0000 0000 0020 59c0 0000 0000 0080 3840
00000270: 0000 0000 0000 0000 0000 0000 0020 59c0
00000280: bf3e 4365 fccf 6140 ba36 ab68 7b3b 0a40
00000290: 055a 06f0 c609 28c0 8a69 f68e 1bd4 2440
000002a0: 32a0 9161 a8bb 32c0 eff5 09f0 512d 34c0
000002b0: a6dc 6d8b 5a4a 3bc0 37b5 fa89 3443 4e40
000002c0: 76ca db5c c669 65c0 1d56 3405 11e8 58c0
000002d0: e2f0 f00e b37a 85c0 5359 2d7d 3e41 57c0
000002e0: 0000 0000 0000 0000 0000 0000 0000 0000
000002f0: 0000 0000 0000 0000 0000 0000 0000 0000
00000300: 022b 8716 d9ce fe3f 0000 0000 0000 0000
00000310: 0000 0000 0000 0000 0000 0000 0000 0000
