Lab7/saved_models/FrozenLake/QAgent/run-2024-06-13_10-30-38/model.npy (npy, 928 bytes, 1 tensors)

array f8 [25, 4]
00000000: 0000 0000 0000 0000 0000 0000 0000 0000
00000010: 0000 0000 0000 0000 0000 0000 0000 0000
00000020: 2421 affb 8449 8140 e100 da7b 59c8 6440
00000030: 29a8 dcae 0ae9 7840 9f7a 05ee 997b 8d40
00000040: 8d5b 0bb1 31fd 8240 640d 446f a61c 7f40
00000050: 65e9 0bae 6dc7 7b40 049b b558 8450 8d40
00000060: c0de 5bbb c84a 5640 57b2 0d5b fe15 3540
00000070: 1ade adc0 5f60 4840 a728 1ebe 3bd8 8b40
00000080: 99da 5f10 234f 1140 1040 6a13 2797 0c40
00000090: 4c85 77fb 78d6 0740 be15 57e0 0ab8 8840
000000a0: 0000 0000 0000 0000 0000 0000 0000 0000
000000b0: 0000 0000 0000 0000 0000 0000 0000 0000
000000c0: f411 879e 1b52 68c0 9512 2b5e 4b73 5240
000000d0: 481f 0166 55a9 8340 8188 63a8 91a6 72c0
000000e0: 4cae e8e7 2b9e 8c40 7a6f 7411 b09a 7640
000000f0: 077f 9506 e7bc 7440 ac71 e8d3 9adf 7040
00000100: 77c3 80a1 65bb 2f40 8d11 8103 d4aa f0bf
00000110: 53e5 ae49 0b0f 8740 9518 4be8 f5f0 3940
00000120: 3c72 c8cf 9cf2 8a40 2438 fc07 e8a9 f2bf
00000130: c78f ed44 4cd7 3a40 dad6 3a38 7fdb 5040
00000140: 8da9 2681 e703 84c0 9f66 c4c1 c2ca 8240
00000150: cb2d 6b62 aae7 5240 cc3c 6510 bad0 32c0
00000160: 36ed 7ed3 0b6d 6b40 61e2 6524 90e1 5d40
00000170: 1698 5f08 8c66 8940 9a2c f5aa fc2e 7440
00000180: 61e9 05dd 6030 8b40 df74 f2e1 b86b 6a40
00000190: a270 ff2f 3cb8 6040 7729 2804 520e 7840
000001a0: 8091 d45e 648a 3ec0 4e49 ac51 8a13 74c0
000001b0: f0b0 23cf d892 58c0 2734 afa4 916f 8640
000001c0: 252a c03a 2e9c 4c40 9f41 b54c d3ee 16c0
000001d0: 5fd4 ef96 69d5 6040 b92e 4a33 f34f 12c0
000001e0: 6ece 9f7b 6ee9 6b40 5ed3 cfe6 2d4a 7040
000001f0: 22f7 a4aa 252d 8640 adb4 16d5 9415 7040
00000200: f98c 2e5f 0867 8740 521e 0954 43b8 6140
00000210: afd6 af89 6f64 7340 dad0 0181 c545 6d40
00000220: c68c 10df 8b96 8440 ac8b ed64 be84 62c0
00000230: abdf ac6e cb69 7cc0 2788 0e35 1c95 5240
00000240: 0000 0000 0000 0000 0000 0000 0000 0000
00000250: 0000 0000 0000 0000 0000 0000 0000 0000
00000260: 0000 0000 0020 59c0 e50e 9bc8 cc5e 4740
00000270: 0000 0000 0000 0000 6666 6666 66de 67c0
00000280: 8ccc 67c8 2635 8540 3cbc 086f 5c90 5840
00000290: 34f7 8430 6109 6640 ac49 3666 955d 5740
000002a0: c1f3 ddfd 3a95 4a40 eff5 09f0 512d 34c0
000002b0: e39e e3d3 8d08 4340 307a 406b cd0d 8240
000002c0: 76ca db5c c669 65c0 befc 5f60 3741 54c0
000002d0: e2f0 f00e b37a 85c0 6893 9fbb 41ad 7240
000002e0: 0000 0000 0000 0000 0000 0000 0000 0000
000002f0: 0000 0000 0000 0000 0000 0000 0000 0000
00000300: 58c5 f018 eb70 1740 0000 0000 0000 0000
00000310: 0000 0000 0000 0000 0000 0000 0000 0000
0.0 0.0 0.0 0.0 553.189933174323 166.260923314846 398.565108167592 943.4501610210463
607.6492634665789 497.7906334551137 444.4642773118306 938.0646223247463 89.168501701085 21.085912409633547 48.75292213906887 891.0291712146908
4.327282195902307 3.573805 2.9797229429101773 791.005310707427 0.0 0.0 0.0 0.0
-194.56587149029622 73.80147508817966 629.1666984641715 -298.4105609787003 915.7714384248916 361.66798539621925 331.80640276333764 269.97529974745225
15.866009757011609 -1.0417060982591437 737.8805116332754 25.941252249082556 862.3265681896078 -1.1664810478137122 26.841007526396222 67.42963987108251
-640.4880393047803 601.3450961440866 75.61977444140136 -18.81533911201113 219.4076936224971 119.52442274045599 812.8183753460205 322.93668647547895
870.047296568093 211.36631867747107 133.75734710589046 384.89502349556227 -30.540594031235287 -321.2212692956863 -98.29448297963586 717.9461148917952
57.22016081221617 -5.733227919161805 134.66913935510362 -4.578076173212758 223.294736683008 260.63620644742866 709.6433918846053 257.34883602971496
748.8790877949497 141.7582187822432 310.2772309178062 234.18035936693815 658.8182965558015 -148.14824148555397 -454.61216609505453 74.32984663409353
0.0 0.0 0.0 0.0 -100.5 46.7406245 0.0 -190.95
678.6439369305895 98.25564170697265 176.2931139561639 93.46224360753575 53.16586278283604 -20.17703151934796 38.066828237669846 577.725302222947
-171.30546420028594 -81.01900491117246 -687.3374308417808 298.82854807218837 0.0 0.0 0.0 0.0
5.8602718255 0.0 0.0 0.0
