Lab7/saved_models/FrozenLake/QAgent/run-2024-06-13_10-23-34/model_best.npy (npy, 928 bytes, 1 tensors)

array f8 [25, 4]
00000000: 0000 0000 0000 0000 0000 0000 0000 0000
00000010: 0000 0000 0000 0000 0000 0000 0000 0000
00000020: ca5c 5c2e 3838 6440 e7a6 cf52 b9da 5b40
00000030: 3a02 7e64 9e37 5240 3276 5e4a 0f59 8e40
00000040: 3a49 04e0 3569 5b40 e233 922a c821 e1bf
00000050: e66b eb64 d128 4440 9ee8 a883 d10a 8b40
00000060: 766b 3ac5 00cd 3e40 e467 baf4 55f2 3140
00000070: a310 89d4 6d07 7640 9c0d 2c86 13f8 5040
00000080: 4c6b 7bb3 a04d 2440 7f4c e93a 0c34 0f40
00000090: 2ad0 b558 ce00 3a40 7e5e a86f 3733 7240
000000a0: 0000 0000 0000 0000 0000 0000 0000 0000
000000b0: 0000 0000 0000 0000 0000 0000 0000 0000
000000c0: 13f6 8a34 17a0 55c0 be67 fc70 8089 52c0
000000d0: 3993 c0b6 e0e2 7f40 6666 6666 66de 67c0
000000e0: 4da2 6849 33a1 8640 b941 3175 65cd 4a40
000000f0: c0f2 5d74 721b 2a40 1879 4bc5 28a6 e4bf
00000100: 7702 b92d 420a 7340 6666 6666 6666 eebf
00000110: 61e1 20fd 3c1b 0040 03ac a22d ac0e e0bf
00000120: fe39 e8c4 21e0 6b40 e097 b50b e32c e2bf
00000130: 0000 0000 0000 0000 2158 060d 89fe e73f
00000140: c969 f9b8 6621 70c0 22ec a0d6 abc1 55c0
00000150: aded e062 db0f 7140 90f9 336f 8e6b 69c0
00000160: d4b3 9cf0 69c1 2f40 34d3 8201 fb5a 16c0
00000170: f4ea 3abc ba57 8340 8428 cbaa 73ff 14c0
00000180: 7e09 ac32 dc7b 8440 eae3 c8c1 d957 3840
00000190: 2421 3f60 e918 01c0 40a2 5518 0a18 06c0
000001a0: 7a62 9a3e 04c6 56c0 0000 0000 0020 59c0
000001b0: 8638 d6c5 6db4 f0bf db88 dce9 6cd4 6b40
000001c0: 6ade 718a 8e64 f6bf ae47 e17a 14ae f5bf
000001d0: c41c 3715 399a 3040 9643 8b6c e7fb efbf
000001e0: a2e1 7aa4 755f 29c0 b100 b814 1667 28c0
000001f0: 48d9 713a 421a 7d40 dcdf 2218 fc91 29c0
00000200: 3087 db5f 2c39 8140 57ac ec62 f012 1dc0
00000210: 7250 51d4 6748 1dc0 eeef 858f 8b7d 1dc0
00000220: 91ab d5a5 61ce 59c0 d0b8 f089 f20b 23c0
00000230: 1406 221d fcee 81c0 393d 5f96 0358 7440
00000240: 0000 0000 0000 0000 0000 0000 0000 0000
00000250: 0000 0000 0000 0000 0000 0000 0000 0000
00000260: 0be6 10aa b0ff dbbf cafd 3645 8a35 55c0
00000270: 9643 8b6c e7fb efbf 1229 b7e9 e57e 53c0
00000280: fc71 8650 1dba 7840 5caa de9f 7a18 08c0
00000290: 2496 1023 db95 2ec0 beb7 c285 5ab4 3740
000002a0: ea97 a7c7 61e8 7640 d465 fde0 04e8 2cc0
000002b0: 7e7c cf3b cabb 2dc0 fd4d 81b3 31ae 28c0
000002c0: 965f f928 95b9 60c0 452f 5f9c 2e4f 5bc0
000002d0: f4fd d478 e999 75c0 6b6f 3cca a10f 4ec0
000002e0: 0000 0000 0000 0000 0000 0000 0000 0000
000002f0: 0000 0000 0000 0000 0000 0000 0000 0000
00000300: f0ec ed55 f8c8 1a40 0000 0000 0000 0000
00000310: 0000 0000 0000 0000 0000 0000 0000 0000
0.0 0.0 0.0 0.0 161.75685804404776 111.4175612476207 72.86904251390015 971.1324660663433
109.64391327303466 -0.5353737670390013 40.31889020438375 865.3523019023885 30.800793005716933 17.946624084004625 352.46431401768695 67.87619165708605
10.151616677108585 3.9004139521071575 26.003148598087286 291.20103421944793 0.0 0.0 0.0 0.0
-86.50141633577759 -74.14846443795156 510.1798617861237 -190.95 724.1500423597842 53.604658745814454 13.053607593982974 -0.645283112851561
304.6411568858088 -0.95 2.013299920621805 -0.5017910853688367 223.00412221295113 -0.5679793575952736 0.0 0.7498212103262213
-258.0875787489609 -87.02611318316534 272.9910610948817 -203.36113701011027 15.87776138222572 -5.588848136529851 618.9661793330147 -5.249464672708317
655.4825185242078 24.34316645769642 -2.1371638793244916 -2.7617380047925337 -91.09400906635884 -100.5 -1.04405 222.63829510758555
-1.39955 -1.355 16.60243351550595 -0.9995 -12.686444416046303 -12.201340339146869 465.64116901848 -12.785126451737533
551.1466672087317 -7.2684951264337405 -7.320708577597644 -7.372602694082145 -103.22470994821767 -9.52333479941845 -573.873102441607 325.50087582781595
0.0 0.0 0.0 0.0 -0.4374810848999863 -84.83656435365916 -0.9995 -77.98278277289162
395.6321568729179 -3.011952637655936 -15.292687507414549 23.704506263769638 366.5238720461481 -14.453162222797722 -14.866777295186917 -12.34022294000078
-133.79945801454295 -109.23721989913345 -345.6195 -60.12212493849696 0.0 0.0 0.0 0.0
6.6962598253696655 0.0 0.0 0.0
