Lab7/saved_models/FrozenLake/QAgent/run-2024-06-13_10-23-34/model.npy (npy, 928 bytes, 1 tensors)

array f8 [25, 4]
00000000: 0000 0000 0000 0000 0000 0000 0000 0000
00000010: 0000 0000 0000 0000 0000 0000 0000 0000
00000020: ca5c 5c2e 3838 6440 e7a6 cf52 b9da 5b40
00000030: 3a02 7e64 9e37 5240 4874 1d60 ee90 8c40
00000040: 3a49 04e0 3569 5b40 e233 922a c821 e1bf
00000050: e66b eb64 d128 4440 7099 bf07 a310 8c40
00000060: 766b 3ac5 00cd 3e40 e467 baf4 55f2 3140
00000070: 5805 1eb3 5ea4 7d40 0603 4988 7a24 6240
00000080: 2bd7 e739 9dd6 4740 8afe b9c2 180f 4140
00000090: de3a c4e8 1e08 4c40 8369 9913 0913 7a40
000000a0: 0000 0000 0000 0000 0000 0000 0000 0000
000000b0: 0000 0000 0000 0000 0000 0000 0000 0000
000000c0: 13f6 8a34 17a0 55c0 be67 fc70 8089 52c0
000000d0: 911a 29fe 7086 8240 6666 6666 66de 67c0
000000e0: 5e72 fa79 ffd4 8740 d498 5022 415e 5e40
000000f0: c0f2 5d74 721b 2a40 1879 4bc5 28a6 e4bf
00000100: 2c5c e983 4e43 7740 6666 6666 6666 eebf
00000110: dc1e 5663 a1f9 4940 03ac a22d ac0e e0bf
00000120: df5b cc83 5983 7240 e097 b50b e32c e2bf
00000130: 0000 0000 0000 0000 21b8 e001 62da 3e40
00000140: c969 f9b8 6621 70c0 22ec a0d6 abc1 55c0
00000150: 5fd9 cf36 8027 8240 90f9 336f 8e6b 69c0
00000160: d4b3 9cf0 69c1 2f40 d245 d6f1 07c3 4840
00000170: 72be edb1 6647 8440 8428 cbaa 73ff 14c0
00000180: 0189 52b5 8f03 8640 c4fa 2082 ffd5 4b40
00000190: 2421 3f60 e918 01c0 36c2 630b 37a2 5140
000001a0: 7a62 9a3e 04c6 56c0 0000 0000 0020 59c0
000001b0: 8638 d6c5 6db4 f0bf a251 a1f6 c11d 8040
000001c0: 6ade 718a 8e64 f6bf ae47 e17a 14ae f5bf
000001d0: d38f 0f25 afd9 2240 9643 8b6c e7fb efbf
000001e0: a2e1 7aa4 755f 29c0 9a90 5487 5a12 5640
000001f0: 9276 317f e200 8140 9961 a397 d42c 4340
00000200: b019 94d9 3371 8140 a841 6b0d 853e 3d40
00000210: 7250 51d4 6748 1dc0 24ad f8af f3a5 4540
00000220: 91ab d5a5 61ce 59c0 d0b8 f089 f20b 23c0
00000230: 1406 221d fcee 81c0 f39b a6bf 375b 7640
00000240: 0000 0000 0000 0000 0000 0000 0000 0000
00000250: 0000 0000 0000 0000 0000 0000 0000 0000
00000260: 29c8 8f60 1f34 d93f cafd 3645 8a35 55c0
00000270: 9643 8b6c e7fb efbf 1229 b7e9 e57e 53c0
00000280: e8e6 3dc2 6093 8040 bfeb e583 3b29 4840
00000290: f213 b7b6 53db 3740 15c2 622b 7df5 5c40
000002a0: fc25 ae9b 577f 7d40 d465 fde0 04e8 2cc0
000002b0: 7e7c cf3b cabb 2dc0 b778 4b12 eeca 5240
000002c0: 965f f928 95b9 60c0 3e63 6a65 98ba 4ac0
000002d0: f4fd d478 e999 75c0 df65 1a67 8453 63c0
000002e0: 0000 0000 0000 0000 0000 0000 0000 0000
000002f0: 0000 0000 0000 0000 0000 0000 0000 0000
00000300: f0ec ed55 f8c8 1a40 0000 0000 0000 0000
00000310: 0000 0000 0000 0000 0000 0000 0000 0000
0.0 0.0 0.0 0.0 161.75685804404776 111.4175612476207 72.86904251390015 914.1163942624198
109.64391327303466 -0.5353737670390013 40.31889020438375 898.0796046227169 30.800793005716933 17.946624084004625 474.2731200382891 145.1399575639736
47.676673162654275 34.117943135087515 56.06344327527562 417.1897159569418 0.0 0.0 0.0 0.0
-86.50141633577759 -74.14846443795156 592.8051722727997 -190.95 762.6247443739082 121.47272546644973 13.053607593982974 -0.645283112851561
372.20666876941937 -0.95 51.950237671900794 -0.5017910853688367 296.20935420825657 -0.5679793575952736 0.0 30.853057973254298
-258.0875787489609 -87.02611318316534 580.9376045454227 -203.36113701011027 15.87776138222572 49.523679952264175 648.9251440595383 -5.249464672708317
704.4451700637875 55.67185999498682 -2.1371638793244916 70.53460964910559 -91.09400906635884 -100.5 -1.04405 515.719708690933
-1.39955 -1.355 9.42516437354053 -0.9995 -12.686444416046303 88.28677542932783 544.1105941643057 38.35023780324554
558.1503173418369 29.244217718778287 -7.320708577597644 43.29649924890899 -103.22470994821767 -9.52333479941845 -573.873102441607 357.701110506837
0.0 0.0 0.0 0.0 0.39380630903099473 -84.83656435365916 -0.9995 -77.98278277289162
530.4222454868404 48.32212876059156 23.856746120163685 115.83576473850583 471.9588887026473 -14.453162222797722 -14.866777295186917 75.17078072901027
-133.79945801454295 -53.45777576155386 -345.6195 -154.60991244464728 0.0 0.0 0.0 0.0
6.6962598253696655 0.0 0.0 0.0
