Lab6/my_model.pkl (torch, 12550 bytes, 9 tensors)

layers.0.weight f4 [16, 2]
00000000: dae3 2dc0 931b 8ec0 0d32 cf3f f0a1 3f40
00000010: 871d e640 bb58 82be a084 833d 0859 bbbd
00000020: 7d63 3140 3cdc 7040 e9d4 f4be 38e7 a240
00000030: b345 9f40 8362 1040 34c6 d7c0 105a 1040
00000040: 77f7 ce3f ef4a 0b40 9daa 48c0 d450 a4c0
00000050: e8c8 1540 eec0 ebbe 90e7 ed3d 00e8 80ba
00000060: 1f7a 6240 8b0e a7c0 0af0 72bd cbc0 af40
00000070: e273 ba3e 58e9 e2bd 1dd6 2c40 f147 e03f
-2.717032 -4.440866 1.6187149 2.9942589 7.1911044 -0.2545832 0.064217806 -0.09147841
2.7716973 3.763442 -0.47818688 5.090725 4.977258 2.2560127 -6.7429447 2.255497
1.616927 2.1764486 -3.1354134 -5.1348667 2.3403873 -0.4604563 0.11616433 -0.0009834766
3.5387037 -5.2205253 -0.05931095 5.4922843 0.36416537 -0.11079663 2.7005684 1.7521955

layers.0.bias f4 [16]
00000000: ac27 3dbf a6c9 873e f54f 4bc0 8067 30bf
00000010: 5f5a 1dc0 5ac7 1dc0 f616 06c0 8b2d e4bf
00000020: 6f3a b6bf daf9 34c0 b11f 643e 708f 1bbf
00000030: ff49 b3bf ae9a d1bf d2e0 e0be d01b a43c
-0.7388866 0.26521033 -3.1767552 -0.6890793 -2.4586408 -2.4652925 -2.0951514 -1.7826399
-1.4236583 -2.8277497 0.22277714 -0.60765743 -1.4006957 -1.637533 -0.43921524 0.020032793

layers.1.weight f4 [32, 16]
00000000: 3808 793f 20c8 c53d f495 56be f440 87bd
00000010: b15b 36be 547e 00bf b5bf 983e f5da 40be
00000020: 6037 013e 1e36 453e ec2d 12bf c460 3bbe
00000030: 5706 c4bd 58d0 3f3f 6e10 4c3e cc54 113e
00000040: f5d5 15be 000a c0bd 5387 fa3e a270 6dbe
00000050: b86d ae3f 7d8b 793f cbe5 fc3e d6dd a33e
00000060: e28f 013f c7d6 423e 32b2 6cbf 2461 cc3d
00000070: 93a3 2b3e 8055 a83f fc62 37be c20b 55be
00000080: 6a59 a03e 91a4 bbbe 86e3 02be ba7f 52be
00000090: 68cd 8c3d 100c a03c c041 2bbc 2ec6 46bf
000000a0: d87c 613e 9205 823f 4a30 bdbe 40eb 80bc
000000b0: 98ca 55bf 6b63 54be 14c4 3abe b536 4ebe
000000c0: 5b09 ebbc ca59 86bf 76a4 2abf 2acf 2b3e
000000d0: a2fd 943c 1ddc 91be 01fa 92be 69ee ec3e
000000e0: 2786 153e f034 3a3f e92a ac3f 30f2 9ebc
000000f0: cdc3 3bbf c59f 03bf 0ac3 6ebe bd52 a03e
00000100: c1c1 5a3f 0d7e 6fbf afc2 cd3d c84c df3d
00000110: c742 4dbc dcc2 97bd 2108 433d 0bcb 843f
00000120: 6e89 fcbc 6113 d03f d51a 02bf c4ea 3fbe
00000130: 7070 a93f 534b d73d b00c dabc 0a7b b1be
00000140: d96a 44be 50af 2dbf 2466 b6bf 8069 713e
00000150: d564 e5be 976c 30bf 8036 263e 9835 b03d
00000160: e8a8 213e 895b dfbe e955 77be 3626 04be
00000170: 3e7d efbd 8ffb 1fbe b0ae fbbc c80a 8fbf
00000180: 5f1f 173f 0f9d acbe 6ec6 303e e0e6 5bbd
00000190: 9d56 c6bd 9e6a 29be 0fa4 ffbd a4bc 5fbf
000001a0: b547 46be 6fce c33e 91f2 95be 905b e7bc
000001b0: eb61 4ebf ef45 8bbe 006f 9ebd 3a20 bfbd
000001c0: 0c54 d03d 95bb a0be a9a1 113f 4a27 71be
000001d0: 8d4b 3f3e c4e3 393f 97fe a8be 0aa7 a23f
000001e0: d1e8 2f3b 16d6 fa3d c832 3ebf 9c55 093e
000001f0: 7025 b13f 98f4 3f3f d031 d4bc 3089 dabe
00000200: 1a9a 8dbd fe98 febf c7a4 8fbd 20a3 13be
00000210: 8114 623e fdc1 0b3e 7400 89be 25d5 5fbf
00000220: e3ed 4a3e c8b8 2e3f 0fa9 dbbf 18b1 15bd
00000230: c311 d03e 5491 8cbe d869 55be e47a 1fc0
00000240: 836d 8ebe ab06 adbe 378f d23f 569d 3a3e
00000250: b02e 9e3f eff1 0640 bd2c 843f 924a b33e
00000260: 8c32 543f 0cef 1cbb 2c8f 3abf e49b 3ebe
00000270: 8a8f bb3d eea2 e43e 5058 0e3e 17b1 66be
00000280: 98ec 1fbd 2203 72be c03b 743c e844 4bbd
00000290: 4455 883d fbd1 94bd 6071 f0bd b32c b93c
000002a0: 6010 5a3e 6021 99bd 12e6 57be d8cc f8bd
000002b0: e864 5cbd 3d14 8f3d 48e3 013d 2091 723d
000002c0: f338 25be 7634 6abe c2e8 6bbe 223e 5f3e
000002d0: 6411 963d ec85 edbd e0f9 9e3d 7577 f73b
000002e0: 6069 2d3d 9d9c 053e 1fdc 343d 60ab 623e
000002f0: 3e6f 32be 99e6 acbd b49c 0e3e c627 ddbd
00000300: 3dab 6fba 5c73 19be 2570 a3bd 9e5f 2a3e
00000310: 27c6 013e e2ad a03e 0792 0cbe 1fbd 1bbe
00000320: 707e 48be 4fa1 a23d 800e 86be 9058 fabd
00000330: 3d6d c93d ab20 893e 8010 2c3e 44c6 553e
00000340: 1086 3c3e 3c8a c7be 9ea1 dfbf 1c05 bbbd
00000350: 6683 d93d 0177 3e3f 1a03 dabe 0473 d73f
00000360: 1b00 843d c423 103f 0ebb 22be 109b ac3c
00000370: 8c33 2140 848d 093f 2a65 773e 4569 3abf
00000380: 4544 acbb 1f99 9bbd 2892 71bd a04c 19be
00000390: 4066 d6bb 4090 73be c037 dbbd 8149 f83c
000003a0: d015 f8bc f582 7b3d 99ec 4c3c 20ce 4dbe
000003b0: a70b 37be 850d d1bc 2846 2a3d 21ad 19be
000003c0: 61e6 b13e 3952 3dbf c084 4e3d c07e 033d
000003d0: f7d6 593c ab3b a13d 3084 60be b680 633f
000003e0: f2e9 60be e43b b33f 7bc3 d1be 7021 9dbd
000003f0: fe49 a93e 31c0 363f b8d3 f2bd cb4d 68be
0.97278166 0.096573114 -0.2095564 -0.06604186 -0.17808415 -0.5019276 0.2983376 -0.18833525
0.1261878 0.19258925 -0.5710132 -0.18298632 -0.09571522 0.7492728 0.19928142 0.14192504
-0.146324 -0.09376907 0.4893137 -0.23187497 1.3627234 0.9747847 0.49394068 0.32005185
0.5061017 0.19027244 -0.92459404 0.099794656 0.16761617 1.3151093 -0.17908853 -0.20805266
0.31318218 -0.36648992 -0.12782106 -0.20556536 0.06875116 0.019537002 -0.010452688 -0.7764615
0.2202028 1.015795 -0.36950904 -0.015737176 -0.8351226 -0.2074105 -0.1823886 -0.20138057
-0.028690984 -1.0496151 -0.666572 0.16778246 0.018187348 -0.28488246 -0.28706363 0.46275643
0.14601956 0.72737026 1.3450595 -0.019402593 -0.73345643 -0.51415664 -0.23316589 0.31313124
0.85451895 -0.93551713 0.100468986 0.10903317 -0.012528128 -0.07410213 0.047615174 1.0374464
-0.03082725 1.6255914 -0.5082219 -0.187419 1.3237438 0.10512414 -0.026617378 -0.34664184
-0.19181384 -0.6784563 -1.4249921 0.23575401 -0.4480349 -0.68915695 0.16231728 0.08603972
0.15787089 -0.43624523 -0.24153866 -0.12905201 -0.1169381 -0.15623306 -0.030722946 -1.1175165
0.59032243 -0.33713576 0.17263195 -0.053686976 -0.09684489 -0.16544577 -0.124824636 -0.8739722
-0.19363292 0.38243434 -0.29286626 -0.028241903 -0.8061816 -0.27201793 -0.07736015 -0.093323186
0.10172281 -0.31393114 0.568873 -0.23550144 0.18681164 0.7261317 -0.33006737 1.2707226
0.002684165 0.12247865 -0.74296236 0.13411564 1.383955 0.74982595 -0.025902659 -0.4268279
-0.06914158 -1.989044 -0.07013851 -0.14417696 0.22078134 0.1364822 -0.26758158 -0.8743461
0.19817309 0.68250704 -1.7160968 -0.036545843 0.4063855 -0.27454627 -0.20841157 -2.4918756
-0.27817926 -0.3379415 1.6449956 0.18224081 1.2357998 2.1085165 1.0326153 0.3501783
0.8288963 -0.0023946194 -0.7287471 -0.18614155 0.09158237 0.44655555 0.13900876 -0.22528492
-0.039043993 -0.23634008 0.014906824 -0.04962626 0.06656888 -0.07266613 -0.117403746 0.022604322
0.21295309 -0.07477069 -0.21083859 -0.12148446 -0.05380717 0.06986282 0.031710893 0.059220433
-0.16135006 -0.22871575 -0.23038009 0.21801046 0.07327536 -0.11597809 0.077625036 0.007552082
0.04233682 0.13048024 0.044155236 0.22135687 -0.17425248 -0.084424205 0.13926965 -0.10798602
-0.0009142643 -0.14985412 -0.07980374 0.16638038 0.12673245 0.31382662 -0.1372758 -0.15208863
-0.19579482 0.079409234 -0.26182938 -0.12223923 0.09835289 0.26782736 0.16803169 0.20876414
0.18410516 -0.38972652 -1.7471197 -0.09131834 0.106207654 0.74400336 -0.4258049 1.6831975
0.064453326 0.56304574 -0.15891668 0.021070033 2.5187712 0.5373156 0.24159685 -0.7281688
-0.005257162 -0.07597565 -0.058977276 -0.14970636 -0.006542951 -0.23785496 -0.10703993 0.030308487
-0.030283839 0.061404187 0.012507581 -0.20098162 -0.17875539 -0.025519142 0.041570812 -0.1500745
0.34746078 -0.73953587 0.05041957 0.0321033 0.0132958805 0.07872709 -0.21925426 0.8886827
-0.21964243 1.4002652 -0.40969452 -0.07672393 0.33064264 0.7138701 -0.118567884 -0.22685926

layers.1.bias f4 [32]
00000000: ba31 8abe eda0 ebbf c2bc 06bf 4981 d2be
00000010: 3aec 22c0 009d ce3f c5e7 72be 6353 08c0
00000020: fbb9 e53f 086a 3fc0 5002 0dbe 60e5 edbc
00000030: b982 b1be 30d8 60c0 decc 19be 1d4f 51c0
00000040: 0153 dbbf 5bb1 d0be 7ced 25c0 11ad 98be
00000050: 953e 5c3f 33a1 88be b662 90c0 9199 29c0
00000060: 31b9 ee3f c00d 3cbf 7235 57c0 d81f 103f
00000070: 6c3d edbf 551f b8c0 0972 b8bd 866a 2dbf
-0.26991063 -1.8408486 -0.5263177 -0.41114262 -2.5456681 1.6141663 -0.23721226 -2.1300895
1.7947382 -2.9908466 -0.13770413 -0.029040039 -0.34670046 -3.513195 -0.15019557 -3.2704537
-1.7134706 -0.4076031 -2.59262 -0.2981954 0.8603299 -0.26685485 -4.5120497 -2.649998
1.8650266 -0.7345848 -3.362637 0.5629859 -1.853437 -5.7538247 -0.090061255 -0.67740667

layers.2.weight f4 [32, 32]
00000000: 64ba 1b3e 4042 bc3e 1703 61bc 6477 5cbd
00000010: 67b3 bfbe 8b46 c0be e217 fabd b1bc 1cbe
00000020: 66fa e73e 617a 913e 075e f2bd cda7 1e3d
00000030: a026 493e a908 683f c556 513d 696a 27be
00000040: a88d c8bd 12c8 c9bd d7aa ac3d 6d72 163e
00000050: e187 ea3e 6388 733d 3927 88be 2d3b e5bd
00000060: c8fc 8bbe 6eba 09be c567 8f3e 6735 973d
00000070: 5a6e 3f3e 8b49 773c ed1d 2b3e 6d38 3f3d
00000080: 0485 79be e2ae 2f3f cb67 4a3f f79e cdbe
00000090: 63d5 383f 590f 9ebf 7619 203f 6952 0c3f
000000a0: 3cb2 42bf 04e7 1ebe 23b3 f7bd 3e88 d23d
000000b0: ba64 03be de4a b33f bcd9 9bbd 4f7e d43e
000000c0: 682a f5be 3f64 8e3d b18c 563e 6e67 17bc
000000d0: e895 e0be 4d5e 323e e7b6 4e3f ad3c 7d3f
000000e0: 1635 80bf a0fb 4e3e b12f bdbf d3e7 8ebc
000000f0: e6bf 003f 8f15 c63f 368d 403d 46d5 87bf
00000100: 7e7a 9dbd e223 f33c 8bef 9b3e c2ba 61bc
00000110: 2bb0 a83e e4e8 98be 670e ec3c ede3 c6be
00000120: 1b4a 643e e3c6 67bc c2e7 f53d 2d68 e3bd
00000130: b788 de3d ea6e 763d 954e 8dbd 6acc 02bc
00000140: f509 67be b847 793d 17b9 00be 7647 72bd
00000150: cf43 bf3c a33d 44be 3498 a83d 59c3 f0bd
00000160: 61aa d9bd fdf1 a9bc fdbf 4a3d c843 ef3d
00000170: ff05 b7bb e02b 753e 7054 8e3d a2ed 1a3e
00000180: 8951 b7be ec32 1b3e 71e5 90be 2d01 d63c
00000190: 54f8 24bf 4628 9b3e 76dc 2ebe b0e3 f33d
000001a0: 11a1 083f 16d3 bcbd 130f afbc 1c71 92bd
000001b0: 5405 1b3b 752b 9abf 26c6 c33d 4c2f 52be
000001c0: 959e c83e 51bc bcbd 15c0 223e d95e 5bbd
000001d0: a999 163f b1a2 00bc b30f cbbd f0a7 0c3e
000001e0: e347 9cbe 1d94 aebd c996 313e 4a35 ab3e
000001f0: 4732 9fbf dd15 d63d bed2 31be c8ba 1cbe
00000200: 62e2 383e 2e07 bdbc 9802 bc3d 5566 81be
00000210: 33bb 773e 97fb acbe 28be 843d d078 ccbe
00000220: db93 903e d21f ee3d 3475 20bd 03e6 acbd
00000230: e853 28be fb07 d63e 5836 ddbd ecfa 773e
00000240: 6da9 cbbe f42d 333e ac22 aa3e 958f 3ebd
00000250: e36e f6bd 8e08 2ebe e296 203e 70e9 da3b
00000260: 6ffa c13d 468b 0cbe 42a0 21be 2a4a 1cbe
00000270: b24a bfbd c737 c13e a3e0 cbbd 01f3 7b3e
00000280: 5a2a 0e3f 8564 0c3f acfc adbe e31a 973e
00000290: 6182 073e 4935 36bf 715f cebd 8a50 bc3f
000002a0: 0301 243f e5b4 703f 94e6 173e c971 06be
000002b0: 4dab c63d 6e82 913d b63c 083e 5382 78bf
000002c0: eb88 753f 50d5 743e 732e 753e a42b cdbe
000002d0: f1d2 4fbf de52 ae3d 0d9d 7fbf 2b89 073f
000002e0: b9f7 95bf 65ec 8dbe 59ea 883f fa73 23be
000002f0: c963 36bf 7ff1 a5bf bada c83c fdc6 023f
00000300: be08 f8bd 979e 57bd 62dc b0bd 9266 cebd
00000310: d580 523b 420f 0abe 14f7 413c c0bb a53d
00000320: 0693 c53d aa08 bfbd 7e3d 393d 3bf0 27bc
00000330: 88d9 e6bd 4406 3d3d 5f75 993d 06f8 323e
00000340: 5385 cabd dbc0 b53d e4e1 debd 0fff a9bc
00000350: ca9a dfbd 95a0 ca3d 9936 673d a53a d13d
00000360: 18ae e9bd 43e2 c03c 60bb 08bc 4771 103e
00000370: 5d7e 2fbd 9fe7 073e ad6b 7ebd b0dd 42bd
00000380: f09b 2d3e 9690 143f 4106 30bf 4706 ca3e
00000390: 678d 993f fbbd fdba da43 1dbf ed3f 413e
000003a0: d720 503f 4000 223f 05bb 163e d029 f6bc
000003b0: 7660 e23d c0c0 7c3f bde5 a0bc 845b 69bf
000003c0: 0d7a 1bbe 8f80 3b3d 1c49 e9bf 4511 dfbd
000003d0: e106 debf c945 dcbe e3e5 80bf be6b fc3e
000003e0: 59fd 9abe 656c 92be fbd6 313e dd6b 4cbe
000003f0: 5542 4ebd 500a a4bf 19a2 2dbe b60f 01bf
0.15207821 0.36769295 -0.013733647 -0.053824797 -0.3744156 -0.3755382 -0.122115865 -0.15306355
0.45308226 0.2841368 -0.118343405 0.038734246 0.1964364 0.90638214 0.05110814 -0.16349186
-0.09792644 -0.098526135 0.084310226 0.14692087 0.45806792 0.05945624 -0.26592425 -0.111929275
-0.27341294 -0.13450024 0.28008857 0.073832326 0.1869444 0.015093218 0.16710635 0.04668467
-0.24367148 0.68626225 0.79064626 -0.40160343 0.722006 -1.2348434 0.6253885 0.5481325
-0.76053214 -0.15517813 -0.120947145 0.102798924 -0.12831393 1.4007223 -0.07609889 0.41502616
-0.47883916 0.06952714 0.20952107 -0.009240968 -0.4386437 0.17418785 0.80747837 0.9892071
-1.00162 0.20213175 -1.4780179 -0.017444527 0.50292814 1.5475329 0.04700967 -1.0611961
-0.07689379 0.029680196 0.30456194 -0.013777437 0.32946905 -0.2986518 0.028815461 -0.3884577
0.22293894 -0.014146539 0.12007095 -0.11103854 0.1086592 0.06016437 -0.06899754 -0.007983306
-0.22562392 0.060859412 -0.12570606 -0.05915018 0.023347763 -0.19164138 0.082321554 -0.117560096
-0.106282 -0.020745272 0.0494995 0.1168285 -0.0055854316 0.23942518 0.06949699 0.15129712
-0.35804394 0.15156144 -0.2830005 0.026123608 -0.6444142 0.30304164 -0.17076287 0.11908662
0.5337077 -0.09219949 -0.021369493 -0.0715048 0.00236543 -1.2044512 0.09559278 -0.20525855
0.39183488 -0.09215606 0.15893586 -0.05355725 0.58828217 -0.007851289 -0.09915104 0.13735938
-0.30523595 -0.08524344 0.17342676 0.33439094 -1.2437218 0.10453389 -0.17365548 -0.15305626
0.18055108 -0.023074713 0.09180182 -0.25273386 0.24192505 -0.33785698 0.06481582 -0.39935923
0.28237805 0.11627163 -0.039174274 -0.08442309 -0.16438258 0.41802964 -0.10801381 0.24216813
-0.397777 0.17497998 0.33229578 -0.04652365 -0.12032869 -0.16995451 0.15682557 0.00668066
0.094715945 -0.13725004 -0.1578379 -0.15262666 -0.09340419 0.37737867 -0.099549554 0.24604417
0.55533373 0.5484088 -0.33981836 0.295127 0.1323333 -0.71175057 -0.10076798 1.4712079
0.64064044 0.94026023 0.14834052 -0.13129343 0.09700642 0.071049556 0.1330441 -0.9707386
0.95912045 0.23909497 0.239435 -0.40072358 -0.81181246 0.085118994 -0.99849015 0.52943677
-1.1716224 -0.27719417 1.0696517 -0.1596221 -0.7124601 -1.2964324 0.02451836 0.5108488
-0.121110424 -0.052641477 -0.08635785 -0.100781575 0.0032120247 -0.13482383 0.011838693 0.08092451
0.09647183 -0.093278244 0.04522466 -0.0102501465 -0.112719595 0.046148553 0.0749309 0.17477426
-0.09888711 0.08874675 -0.10882929 -0.020751504 -0.109181955 0.0989391 0.056448553 0.10216264
-0.11410159 0.02354539 -0.008345455 0.14105712 -0.04284512 0.1327195 -0.062114406 -0.0475747
0.16954017 0.5803312 -0.6875954 0.39457914 1.1996278 -0.0019358987 -0.6143166 0.18872042
0.8130011 0.6328163 0.1471978 -0.030049235 0.11053555 0.98731613 -0.019640798 -0.91155267
-0.15183277 0.0457769 -1.8225436 -0.10891966 -1.7345849 -0.43021992 -1.0070156 0.4930095
-0.30271414 -0.28598323 0.17367165 -0.19963022 -0.050356228 -1.2815647 -0.16956367 -0.504146

layers.2.bias f4 [32]
00000000: 59d7 32bf b4e9 69c0 3571 9dbe 85b2 d83e
00000010: 26d8 efbe e183 3dc0 53cc 38be 3686 353f
00000020: ac27 2c3f 3281 a2bf c8f0 fe3e ae7c 693e
00000030: 40c2 bb3e ca86 e13f 1b05 8e3f d0e1 ff3b
00000040: ce22 5fbe 9b5d 2cbf 0529 9a3c 8784 8bbe
00000050: 3e68 a5bd b9de cf3d 35dd 3fbd ebc5 37be
00000060: 358c e33e d17b 0dbf 4767 82be 4fd8 c0bf
00000070: b620 55bd d512 a23e 363f 25bf 1afb 55bf
-0.69859844 -3.654889 -0.30750433 0.423237 -0.46844596 -2.9611742 -0.18046694 0.70907915
0.67248034 -1.2695677 0.49793077 0.22801468 0.36671638 1.7619259 1.1095308 0.0078089014
-0.2179062 -0.6733033 0.018818388 -0.27249548 -0.08076523 0.10149903 -0.04684182 -0.17946593
0.44442907 -0.55267054 -0.2546942 -1.5066012 -0.05203315 0.31654993 -0.6454958 -0.83586276

layers.3.weight f4 [16, 32]
00000000: d817 c73e 703a c6bf a598 d8be 23c9 8ebe
00000010: fec6 6cbe 61c3 243f c0a8 913d 3d1b 6a3f
00000020: ef3b 153f 6637 3d3f 9788 27bf ec81 873e
00000030: be10 7f3e d991 d33e d300 623e 6b3f 053e
00000040: 929e 31be e12d 79be 84be 33be b8bb 393d
00000050: c2ba 0a3e 5257 2b3f 4957 193e 2bbc 623c
00000060: c0e7 10bf a228 cfbd 9c92 adbe 33e7 453f
00000070: 5358 83be 0483 c1be 559d e23d 298e a73d
00000080: a1b4 34bd 5970 8bbe 8c1f 19be 80ec 19bd
00000090: daa2 34be 0012 47be fab3 123e 7203 ef3e
000000a0: 72a5 8d3e b44a 18be 17f8 73bc 9653 7fbc
000000b0: 980a 423d d006 383e b3ad f13b 5480 1d3e
000000c0: 3075 66be 6933 963e fe25 20bf afff 80bb
000000d0: 4a5f 71be 70c1 c6be 390b 4c3e f9d4 3d3c
000000e0: 82f0 c1bb cd9c 2b3a ad46 0abe 559d ad3d
000000f0: 854d 8fbd 6558 90be b7a5 9d3e f700 6a3c
00000100: c357 f13c 2477 26bd d630 2abe 7bc0 f43c
00000110: ae9f 8cbd 5ca1 64bd dede 02be c405 8c3d
00000120: 457b 34be 28f0 1abe 400e b2bd 2aad e8bc
00000130: d0ce d2bc f9ae b83d 6edd aa3d c408 86bd
00000140: ea60 9fbd b6ca 31be ae31 f6bd b321 20be
00000150: 05e1 c7bd 503e 2bbe 2b96 233e d35d d2bd
00000160: 3432 1dbe dc2a 043e 599e c4bd 3c59 1fbe
00000170: fdba 243e 6c45 013e 47e4 c53c 3926 30be
00000180: 3dc4 cabd 75be 5cbe bd7d 5c3d e32e cebd
00000190: cbdc 52bc 9178 b03d 9548 b33d c0c8 553e
000001a0: 969e 393e 6b2a 403d ed4b 833d dd5e d5bc
000001b0: d221 0b3e 6f29 1dbe ffc0 43be 5029 a83d
000001c0: 9307 1bbe c336 f53d 3a94 e1bd ee8d 18be
000001d0: 39f9 503e ef33 30be 0eb9 523e 3e05 cbbd
000001e0: 1e16 85be e79d 70be 129d cabb 9fd3 c03c
000001f0: 546e 013e a0ec 68bc a87a cb3d b1f1 ab3d
00000200: dd13 09bf 2165 1e3f d06a 153e c210 0b3f
00000210: 3fc5 933e 2e65 ecbe 37b8 12be cc0f 8fbe
00000220: b1a6 01bf 7505 ffbe 4ad4 0d3f b50d 1a3d
00000230: 97bb f5bc 4dee fbbe ae2d abbe ba24 f9bd
00000240: 31fe c5bd da5d 3c3e 5990 df3e 7b9e 133e
00000250: ff37 d8bd 7aec 0cbf 5974 b1bd 8326 f3bd
00000260: 10ef 253f 92a4 db3d 45bb bd3c 8081 0dbf
00000270: 243d 163e f041 d33e 7e64 83be 32b4 6d3e
00000280: df0b 81bd 924e df3d 46c9 e43d 3122 aa3b
00000290: 3819 0d3e a951 35be 2ddf 4a3c 6cdf 973e
000002a0: 0a57 0abe 80c8 d4bd eaf1 39be 33c9 59be
000002b0: bea5 91bc ab5d 4a3e b26e 883d e8b1 0ebe
000002c0: 9aa1 0f3e 3594 c0bc 7b19 1cbe 92ed 0bbd
000002d0: 31ef 2b3e 9f47 503e d7f4 13bc 1db0 273e
000002e0: 1a23 57be 741d 6c3c 7dcc dd3c de39 ff3d
000002f0: 8305 09be 60c6 ccbd 515c e63c 9675 26be
00000300: 0230 053e 3880 1d3d be56 5cbb 571f 963d
00000310: 1dd3 fcbd 2701 45be 603e 033e 0d40 973d
00000320: 97c0 44bd 70e5 703d 7495 5c3d 43a3 1c3e
00000330: d655 d4bc 7d94 a0bd 4415 dbbd c44a 40bd
00000340: d24c 283e 0d11 023e 1ce2 2bbb fcd5 023e
00000350: 37e6 243e 4d8a 37be 22e7 0bbb 4da2 613d
00000360: d7ab 363d 2f13 0ebe 2d61 0bbe 20cb ce3c
00000370: 3576 6dbd 18f3 b6bb 2269 3b3d c8be a73d
00000380: 5ce2 3e3e e524 e4bd 4c90 ffbd d275 143e
00000390: 6c00 fbbd 7364 9ebd e42c 29bc 795f 433c
000003a0: e091 78bc 24f6 0bbd c91e 3dbd 9a6d d53d
000003b0: d196 c23c 5a79 09be 8d48 51be 97d6 0f3e
000003c0: eb4c 7fbc d426 14be 5609 46bd 329e e43d
000003d0: f4a7 de3d f4b3 313e 834e 813d 2a53 7dbd
000003e0: 5f30 993d 3b68 833e 53ed 05be 6d7d a2bd
000003f0: 708d 15bd a1e7 5dbe 6ba8 023e 1c5d 0e3e
0.3888538 -1.5486584 -0.4230396 -0.2788783 -0.23122784 0.64360625 0.07112265 0.9144781
0.58294576 0.73912656 -0.65442795 0.2646631 0.2490873 0.4132221 0.22070627 0.13012473
-0.17345646 -0.24333908 -0.17553145 0.04534504 0.13547805 0.66930115 0.14974703 0.013838808
-0.5660362 -0.10115172 -0.33900917 0.77305907 -0.25653324 -0.3779527 0.11065165 0.08181412
-0.044117574 -0.27234152 -0.1495344 -0.03757906 -0.17640248 -0.1944046 0.14326468 0.46682316
0.27665287 -0.14872247 -0.014890692 -0.015583893 0.047373384 0.17971349 0.007375443 0.15380985
-0.22505641 0.29336098 -0.6255797 -0.00393673 -0.23571506 -0.38819456 0.19926156 0.011586421
-0.0059185633 0.00065464975 -0.13503523 0.08477274 -0.069972076 -0.2819244 0.30790493 0.014282457
0.029460793 -0.040640965 -0.16620192 0.029876938 -0.06866394 -0.055817947 -0.1278033 0.06837037
-0.17625149 -0.15130675 -0.08694124 -0.028402884 -0.025733382 0.090177484 0.083430156 -0.06544641
-0.07782157 -0.17362484 -0.120211944 -0.15637855 -0.09759716 -0.16722989 0.15975253 -0.10271802
-0.15351182 0.12906975 -0.09600515 -0.15561384 0.16086955 0.12624139 0.024156703 -0.17202081
-0.09900711 -0.21557029 0.05383085 -0.10067537 -0.012870024 0.08616746 0.08754078 0.20877361
0.18126902 0.046915453 0.06410966 -0.02604621 0.1358712 -0.15347837 -0.19116591 0.08211005
-0.15139608 0.119733356 -0.110146 -0.14897892 0.20407571 -0.17207311 0.20578405 -0.09913109
-0.25993437 -0.23497735 -0.006183275 0.023538409 0.12639743 -0.014216572 0.09935504 0.08395708
-0.53545934 0.6187306 0.14591527 0.54322445 0.28861424 -0.46170944 -0.14328085 -0.2794174
-0.50644976 -0.4980885 0.5540205 0.03761073 -0.029996676 -0.49205247 -0.33433288 -0.12165208
-0.09667624 0.18395177 0.43664816 0.14415924 -0.105575554 -0.55048335 -0.0866477 -0.1187258
0.64817905 0.10724749 0.023160586 -0.55275726 0.14671761 0.41261244 -0.25662607 0.2321327
-0.06301092 0.10903658 0.11171202 0.005192064 0.13779151 -0.17706932 0.012382311 0.29662645
-0.13509765 -0.10389805 -0.18158689 -0.21268158 -0.017779227 0.19762294 0.066617385 -0.13935053
0.1402649 -0.02350817 -0.15244095 -0.03416211 0.16790463 0.20339821 -0.009030542 0.16375776
-0.21009484 0.014411319 0.027075047 0.12462209 -0.13381009 -0.099987745 0.028120192 -0.16255793
0.13006595 0.038452357 -0.0033621038 0.07330196 -0.12344954 -0.19238721 0.12816763 0.073852636
-0.04803523 0.05881256 0.053853467 0.15296654 -0.025919836 -0.07840822 -0.106974155 -0.046946302
0.16435555 0.12701817 -0.00262273 0.12776941 0.16103445 -0.17923851 -0.0021347483 0.055086423
0.044597473 -0.13874505 -0.13611288 0.025243342 -0.05797406 -0.0055831783 0.04575456 0.081906855
0.18641037 -0.111398496 -0.12478694 0.1449807 -0.1225594 -0.07734003 -0.010325644 0.011924618
-0.015171498 -0.034170285 -0.046171937 0.104212955 0.023753555 -0.13425198 -0.20437832 0.14046703
-0.0155823035 -0.14467937 -0.048348747 0.11162986 0.10871878 0.17353803 0.06313803 -0.06184689
0.07479929 0.2566546 -0.13078813 -0.07934079 -0.03651184 -0.2167039 0.12759559 0.13902706

layers.3.bias f4 [16]
00000000: 27da 0b3f 6565 eb3e 2b50 43be 6bf3 42bd
00000010: ede4 eb3e f139 953b f132 8ebe 77fe 32be
00000020: 50a8 11bf 379d 853e 51fe 543f 467f d13f
00000030: 0f71 0abf 4cb3 26be 4215 723e d010 b6be
0.5462975 0.45975795 -0.1907355 -0.047595423 0.46073094 0.0045540263 -0.2777324 -0.17479883
-0.5689745 0.26096508 0.83200556 1.6366966 -0.54078764 -0.16279334 0.23640922 -0.35559702

layers.4.weight f4 [1, 16]
00000000: 529b 51bf 7f74 73bf 7b74 ecbd 1445 8fbe
00000010: ac3d 1c3f 355a df3e da66 71be 56f3 8bbe
00000020: 7728 413f 74ae a13f eada 02c0 1179 e43f
00000030: bfa1 443f c5d7 72bd bc9e 6ebf 97fa 0c3f
-0.81877625 -0.95099634 -0.115456544 -0.2798239 0.61031604 0.4362351 -0.23574391 -0.27334088
0.7545237 1.2631364 -2.0446115 1.7849447 0.76809305 -0.059287805 -0.9321096 0.5506987
